CartPole-v1_vpg.pth (torch_old, 271517 bytes, 6 tensors)

net.0.weight f4 [256, 4]
00000000: 9471 c8be 49a2 b7bd 293f 323e 1fcc dd3e
00000010: bd0e e0bd 8ac5 e5be 369c 423e 63a3 c63e
00000020: cdcb 353b 45c8 f5be 1f70 363d 70d8 07be
00000030: 20c7 893e 31ae 65be b5e4 fcbe 8857 f7bb
00000040: a820 2fbc dada 563d 519c f4be a798 2bbd
00000050: 5155 9c3c b96c c63e 3cae a53e 83e2 663e
00000060: 0828 debd b637 4b3e a9b2 b4be ef33 a7be
00000070: 643a dbbe 8744 5b3e c44d d5be 332c a03d
00000080: a9ab 413d 185f bc3e b6bb fbbe 312c f43e
00000090: 81d6 4f3e 289b 883e edd4 f73e bf09 6b3e
000000a0: b85a 9fbe cab7 073d 2600 5d3d 5c2f 793e
000000b0: 5ac7 b43d 7392 9b3e 7922 f03e a386 f73d
000000c0: 9ce8 72bd 0234 41be ce87 ff3e 3b7f 4e3e
000000d0: 2340 9fbe 017e ef3d be8e e5be ede9 8d3e
000000e0: 079d f4bd cbee 593e 1dec 04be 220c 97be
000000f0: 0f99 aebe d13d d43d d6bb a33e dd8c a6bc
00000100: 26db 2bbe e40c 69be 1125 0abf e318 15be
00000110: 3e7b e63e 1bfc 8cbe 111b 1cbf ce53 1c3e
00000120: afb7 3c3e 8c7f bc3e 513b 0cbf 16cd 5cbe
00000130: 5a0a 153d d5ae 87be 5b5f 02bf 19b5 88be
00000140: 850b 8e3e 9a97 813e 13b8 bd3e 0767 963e
00000150: 28a3 80be 48ae a9be d93e b7bd 6e8b ab3e
00000160: 3369 fcbe 72a1 d9bd 17c9 663e 72df 83be
00000170: 62a2 82bd 6e7f 843d 919d b5be abad bebe
00000180: d651 783e 6c40 fa39 3a3d 523e 6810 a1be
00000190: ff67 64be 3734 0f3e efde fabe 88b1 de3e
000001a0: 6bbd 3dbe 587c f4be 7360 a8bd f785 8e3e
000001b0: 3b2a 033d 173e 293e 51d6 0cbb de01 603e
000001c0: 379a 76be f660 1b3e 8802 a33d 79d9 3abe
000001d0: aecc 8c3e 747a 35be e0b6 943e c883 683e
000001e0: 4ce6 c9be 0033 a53e f62d 393e 7de2 a7bd
000001f0: 0820 a33e b7cd d4be 4478 003f a02f 1d3e
00000200: 4322 ecbd a2eb 193e 7b0b b73e 057a 59be
00000210: 836d 253e 16c7 f73e e380 b63e 25c5 cabe
00000220: f652 e1bd efe0 de3e fa23 f7be fcf1 f1be
00000230: cc41 6fbe abcb 113e 4d97 863e 7125 4a3e
00000240: 670e 9fba 981e 0d3e bb1d b4bd 8f3d d5be
00000250: c490 e0be 8b91 89be e5c1 4c3d 0145 ed3e
00000260: b054 683d afbe cabe cd3b 11bf 8629 073e
00000270: 7b77 a6be 6843 f53e addf 09be 6536 ed3e
00000280: 557d cd3d 603a 94be 0229 c4be 1e19 02bf
00000290: 306c 44be 5348 86bd 8d49 adbe a630 1d3e
000002a0: be45 903e 0efa 943e 81bb 0ebe 1598 de3e
000002b0: 2e4b f03e 2f04 b33e 27c1 43bb 164a c13e
000002c0: 8b71 d73e e63c 02bf 51ad 373d d04c bbbe
000002d0: 2c42 a63e cfb7 43be 4c4e 133f aae1 a03e
000002e0: 7535 d93e d940 89be 3c31 f03e 3a45 69be
000002f0: 99aa cdbe a006 b33e 35a0 1abe 370a 0abf
00000300: f5ad f33e 4b31 a73b 876a a03d a8ce d7be
00000310: 7ab2 bd3c 1693 923e fa9f efbe 1d0c 95be
00000320: cf0b 36be dc20 f9be b7e9 13bf d40c 7fbe
00000330: fa5e 8abe cb77 e0be a411 8bbe 91b3 12be
00000340: 0cb8 0d3e 7468 b53d 97f5 673e 12d5 f93e
00000350: 0d72 d7bc a82b 3f3e 53e0 d33d a445 273e
00000360: 6fed 7d3e 99db 60be ff2a 323e 27e4 8b3d
00000370: 55e9 c6bd 1a41 7e3d 9891 cf3e ec01 0e3e
00000380: eceb 623e deee 963d 3606 133f 64f4 113e
00000390: 07e5 e3bd 4c2c d03c f64d 9cbe 5718 273e
000003a0: 6451 0e3e 041f b3bd 50a3 14bd 8d13 d83e
000003b0: 7b3d a0be f8e2 c23e 9e4e 4dbc 0089 c0be
000003c0: fbe9 30be a4e9 82be e7bc 55be 5e67 2fbe
000003d0: 747d 51be 30ad 943d 1fca 143f f4f4 5a3e
000003e0: ff40 b93d 625a 80bc 9b5a 13be 78c0 183e
000003f0: 5f3b 973e a625 a4bd 2af1 453e c3fb c43e
-0.39149153 -0.089665 0.17406906 0.43319795 -0.10940311 -0.44877273 0.19004902 0.3879653
0.0027739883 -0.48004356 0.04454052 -0.13266158 0.26909733 -0.2242973 -0.4939324 -0.0075482763
-0.010688938 0.052454807 -0.4777551 -0.041893627 0.01908365 0.38754824 0.32359493 0.22547345
-0.10847479 0.19845471 -0.35292557 -0.3265681 -0.42817986 0.2141286 -0.41660893 0.0782093
0.04728285 0.367913 -0.4916665 0.47689965 0.2029667 0.26680875 0.48404637 0.22952937
-0.311239 0.03313426 0.05395522 0.24334472 0.08827086 0.3038517 0.469013 0.12086227
-0.059303865 -0.18867496 0.49908298 0.20165722 -0.3110362 0.11693955 -0.44835466 0.27717534
-0.11944013 0.21282499 -0.12980695 -0.29501444 -0.3410115 0.10363353 0.31979245 -0.02033084
-0.16782817 -0.22758824 -0.5396281 -0.14560275 0.450159 -0.2753609 -0.609788 0.15266344
0.18429445 0.3681606 -0.5477801 -0.21562609 0.036386825 -0.26500574 -0.5092675 -0.26700667
0.27743164 0.25310975 0.370545 0.2937548 -0.25124478 -0.3314078 -0.08947534 0.33504814
-0.4929901 -0.106264964 0.22537647 -0.25756413 -0.06378628 0.06469618 -0.35471776 -0.37241873
0.24249968 0.00047731714 0.20531169 -0.3145783 -0.22305296 0.13984762 -0.4899821 0.4349482
-0.18529288 -0.47751117 -0.08221521 0.27836582 0.032022696 0.16527592 -0.0021490047 0.21875712
-0.24082266 0.15173706 0.07959467 -0.18247022 0.27499908 -0.17722493 0.29045773 0.2270652
-0.39433515 0.32265472 0.18083939 -0.08197496 0.31860375 -0.41563198 0.5018351 0.15350199
-0.115299724 0.15031293 0.35750946 -0.21237953 0.16155057 0.48394078 0.35645208 -0.39603534
-0.11002152 0.43530986 -0.48269635 -0.47254932 -0.23364943 0.1423785 0.26287308 0.19740845
-0.001213503 0.13781202 -0.08794733 -0.41648528 -0.43860447 -0.26868853 0.0499896 0.46341708
0.05672139 -0.39598605 -0.56731874 0.13199434 -0.3251303 0.4790299 -0.13464232 0.46330562
0.10033671 -0.28950787 -0.38312536 -0.50819576 -0.19181895 -0.065567635 -0.33845177 0.15350589
0.2817821 0.29097027 -0.13938715 0.43475404 0.46932358 0.3496413 -0.0029869766 0.37751836
0.42078814 -0.50874174 0.04484302 -0.3658204 0.3247236 -0.19113086 0.57541347 0.31422168
0.42423597 -0.26807287 0.46912563 -0.22780314 -0.40169218 0.34965992 -0.15100177 -0.53921837
0.47593656 0.0051023117 0.078328185 -0.42149854 0.023156393 0.28627843 -0.4680174 -0.29110804
-0.17777942 -0.48657882 -0.57778496 -0.24907237 -0.27025586 -0.43841395 -0.27161896 -0.14326312
0.1383974 0.088578135 0.22652279 0.48795372 -0.0262995 0.18668997 0.10345521 0.1633516
0.24797605 -0.2195877 0.17399214 0.06830626 -0.09712473 0.062073804 0.40540767 0.1386792
0.2216031 0.07369779 0.5743135 0.14253384 -0.11127668 0.025411747 -0.3052823 0.16317879
0.13898236 -0.0874615 -0.03628856 0.42202416 -0.31296906 0.38063788 -0.012530951 -0.37604523
-0.17276756 -0.2556888 -0.20872842 -0.17129275 -0.20458013 0.072595954 0.5812091 0.21382505
0.090456 -0.015668098 -0.14390032 0.14917171 0.29537484 -0.08014993 0.19330278 0.3847333

net.0.bias f4 [256]
00000000: 1dab df3e 8b79 a03e 54bb 87be 8b68 c7bd
00000010: 6804 cd3d 7ea0 8bbe eb11 11be d963 04bf
00000020: 6703 7bbe b02e ab3e 579d 21be 8238 563d
00000030: 12db a8be 8b73 99be cda2 0bbd ab56 ffbe
00000040: 1c68 33be dd9f 963e 2d53 aebe 3b19 95bc
00000050: 9ba8 e23c 9dd7 d7be 45b7 233b 0667 0cbe
00000060: 875a d8be 268e d5be cb2c 54be db0a 9f3e
00000070: 45da d13d 5d49 81bd e6e3 e6be c2e1 cebc
00000080: 554b dc3b ab85 28be 9b80 6d3e 3a81 80bc
00000090: 5804 cebe d41e 223e 21ff 133e 650e 2abe
000000a0: b113 7c3e c9dc 823e 918d 03be fd6d c5bd
000000b0: c65c cc3e a11f 093e c691 febe 3bf5 a0bd
000000c0: bd34 2dbe 0705 f93e 9984 bb3d 88c1 5b3e
000000d0: 6454 b93e 0d0d e03e b925 093d a0f1 453e
000000e0: 5f1c a73e 3def e5be 9877 c2bd d422 aabd
000000f0: 524a 4cbd c1a1 cc3b ebf6 f63c bebf e13e
00000100: 9a4e ad3c 5890 a0be 3bc2 123e 0b48 e5be
00000110: e496 f2bd f6bd 823e c17e f73d 41b5 72be
00000120: 40a8 8c3e 840b 52be db9a e0be 73b5 e1be
00000130: 20d9 fbbe bf97 0abd 1784 883e c558 a9be
00000140: 329f b23d 0eb6 c7be 8ce8 ae3d 5584 3abe
00000150: c55b b13e dfdf 00bf 203c e23e fc28 b33d
00000160: 17d5 003e bacf 513e 6f2a 93be 6668 58bb
00000170: 447e 2e3e 4e8e 91be 0a0a 87bd a3b7 67bd
00000180: 8b0f b9be 072c 053e f3b4 02be a6ec 8cbe
00000190: 38fe 953e 5e0e 9f3e ab88 57bd 9893 a23d
000001a0: 979a 5d3e d28f d53d cd16 c2be ba39 a23e
000001b0: 7a90 d6be e3ad 9dbe 275b 63be 8c95 72be
000001c0: 75b9 ee3e ab52 e5bc e952 643e 7b2d 3abd
000001d0: bdff 233e 8558 dbbe a8b3 6a3e 3227 bfbd
000001e0: e011 c83e 7712 acbe 2926 d83d 21da e4be
000001f0: ecc9 b83e 40c2 943e 1723 9b3d acf4 d5be
00000200: 16b9 01bf 69c2 ce3e 4551 74bd 81f3 443e
00000210: 5013 4fbe 8acb edbe d446 99bd 8c17 313e
00000220: 83d4 cb3e e3dc 963e c899 3dbe 933e b33d
00000230: f27d 4bbe 4573 bcbd 0928 b63e 8f1f b5bd
00000240: 2847 c73d 7a47 d7be ba82 cf3e c92d 50be
00000250: 752d a13e c28a e73e ea5e ef3e 4143 0e3e
00000260: 7e4e 353e f8d4 adbe 479b 99bd 8560 a23e
00000270: eb62 e03e 7e6a 1d3e c646 843e 435e cd3e
00000280: 7233 d73e 1a30 c7be 1ac4 423e afac fabe
00000290: e804 253d 9eaf c8bd b5c6 f03e ef0e bc3e
000002a0: c953 923e fdaf c33c 8562 b33e e5c5 b53e
000002b0: 2e2e 01be 2bbd 2d3e 1edd ce3e 279d 6bbe
000002c0: 16a0 c73d 3cd9 cfbc f89b b5be 4963 2b3d
000002d0: 95a1 21be fa3a 8abd 5490 d9be 201c b63e
000002e0: aa6f 5c3e 14aa 97bc dc89 9fbe e1a3 a13d
000002f0: 6552 8e3e 300c b0bd a6b9 db3d dbac c1be
00000300: 769b 92be 659e b5be efba 833d 26b6 ddbc
00000310: 0994 c9be 14a5 b23d 3ad9 f6bd 2eaf 17be
00000320: 12ed 78bd 5238 ba3e e427 a1be 5661 91bd
00000330: 1f6b b0bd e5de d63e e8fa 06bd 5a10 213e
00000340: b71f e5be f07b f7be c856 033e aee5 9cbe
00000350: 6481 8dbe d155 b83e da47 bebe fc02 f73e
00000360: c93f 2e3e 2e94 e73e aad6 973e e1ac d7be
00000370: bc1d 9ebe f53c 193e 8376 88be 64ec 07be
00000380: 69e6 a9bd 97ae 583d 72a1 d9be f650 433e
00000390: ab57 9d3d 31d2 9a3d f37d 84be b1ba 873e
000003a0: 5589 79be 0a3e ce3e 4ddb d73e 57ab b4be
000003b0: 2810 8bbd 3fc6 e5bd 6312 d23e 345b 8d3e
000003c0: 1985 a43b 6dc0 84be f35d 943d f0d0 88be
000003d0: e83f cd3e fbcc bbbe cb19 f8be 8b40 adbe
000003e0: 2697 9e3e 8ba3 d23d 38b0 e1bc 1252 083d
000003f0: d779 3d3e 4cc0 853d 9e6d 76be c165 b7bd
0.43685237 0.3134273 -0.26510108 -0.09736737 0.10010606 -0.27270883 -0.14166991 -0.51714855
-0.24513017 0.33434057 -0.15782677 0.052299984 -0.32979637 -0.29970965 -0.034090806 -0.4987081
-0.17520183 0.2941884 -0.34047833 -0.018200507 0.027668288 -0.42156687 0.0024981063 -0.13711175
-0.42256567 -0.41710013 -0.20720212 0.3106297 0.1024671 -0.06312821 -0.45095748 -0.025254134
0.0067228475 -0.1645724 0.2319359 -0.01568662 -0.4023769 0.15832072 0.14452793 -0.16607054
0.24616887 0.2555907 -0.12846972 -0.09640119 0.3991453 0.13390972 -0.4972059 -0.07859274
-0.1691465 0.48636648 0.0915615 0.21460545 0.36197197 0.43759957 0.03348324 0.19330454
0.32638833 -0.44909087 -0.09495467 -0.08307424 -0.049875565 0.0062448685 0.030147037 0.440916
0.021155644 -0.31360126 0.14331906 -0.44781527 -0.11845186 0.25535554 0.12084723 -0.23701955
0.27472115 -0.20512205 -0.43868145 -0.44083747 -0.4918909 -0.033836123 0.26663277 -0.33075538
0.0872177 -0.39006084 0.085404485 -0.18214543 0.34640327 -0.503416 0.44186497 0.087480515
0.12581287 0.20489398 -0.28743312 -0.003302121 0.17040354 -0.28428882 -0.06593712 -0.056571614
-0.3614467 0.13005076 -0.12764339 -0.27524298 0.29295516 0.3106565 -0.05262057 0.079383075
0.21641003 0.10427822 -0.3790802 0.31684667 -0.41907102 -0.30796728 -0.2220274 -0.2368986
0.46625867 -0.02799352 0.22297253 -0.04545353 0.16015525 -0.42840973 0.22920096 -0.09333648
0.39076138 -0.33607838 0.105541535 -0.4469767 0.36091554 0.2905445 0.07575052 -0.41788232
-0.50673044 0.40382698 -0.059647817 0.19233514 -0.20222211 -0.4644435 -0.074842125 0.17294139
0.3981057 0.29465398 -0.18515694 0.087521695 -0.19872263 -0.092016734 0.3557742 -0.0884391
0.09730369 -0.4204672 0.40529424 -0.20329966 0.31479993 0.4522305 0.467521 0.13892843
0.17705724 -0.33951545 -0.0750032 0.31714264 0.43825468 0.15372655 0.25835246 0.40110978
0.42031437 -0.38903886 0.1902012 -0.48959872 0.040287882 -0.09799121 0.470266 0.36730143
0.28579548 0.023887629 0.35036102 0.35502544 -0.12615272 0.16966693 0.40403074 -0.23009168
0.09747331 -0.02537214 -0.35470557 0.041842733 -0.15784295 -0.0674953 -0.42492926 0.35568333
0.21526971 -0.018513717 -0.31159866 0.078925855 0.27797237 -0.085960746 0.10728769 -0.3782719
-0.28634232 -0.35472408 0.06432139 -0.027064394 -0.39370754 0.087228924 -0.120531514 -0.1481292
-0.060772963 0.36371094 -0.31475747 -0.070986435 -0.08614182 0.4196693 -0.032954127 0.15728894
-0.4475076 -0.48336744 0.12826073 -0.30643982 -0.2763778 0.36002973 -0.37164193 0.48244464
0.1701652 0.4523024 0.29655963 -0.42124084 -0.3088206 0.1496466 -0.26652917 -0.1327377
-0.082959004 0.052900877 -0.42505985 0.19073853 0.07682737 0.07559622 -0.25877342 0.26509622
-0.24368794 0.40281707 0.421595 -0.35286972 -0.06790191 -0.11219453 0.41029653 0.27608645
0.0050207493 -0.2592806 0.07244482 -0.26721907 0.4008782 -0.36679825 -0.48457178 -0.33838305
0.30974692 0.102850996 -0.027549848 0.033281393 0.1850351 0.06530818 -0.24065253 -0.08954955

net.2.weight f4 [256, 256]
00000000: 46d6 19bd d20f 2cbc 4993 61bc 9a58 52bd
00000010: 854f 3ebd 1908 ca3d 1949 9fbc 33b0 8c3c
00000020: 5f9e 673d 2c99 6fbc b107 9e3c d5c6 293d
00000030: 99fb 0e3d f0c4 9c3c 3594 d8bc 6952 573d
00000040: 6efc f7bc 2e82 63bd 3c90 d4bc 650d 42bd
00000050: 2e3f d63c e468 e0bc 9e66 51bd f6c6 66bd
00000060: dfd4 5b3d dcbd a03d f9ea 0ebd 30f8 a4bc
00000070: 853f 8ebd 6df5 023d 2f50 b6bc f0d8 b7bc
00000080: 8924 b3bc 2be1 7b3d e594 2dbd a660 93bc
00000090: e837 813c 7cb7 493d bce2 4ebc d84f a43d
000000a0: 9f79 353c a4e0 9abd 39c9 143d 9c75 b23d
000000b0: db96 95bc 007a 563d 0915 4ebd e199 cdbc
000000c0: f3c2 f5bc e46f 6dbd 1186 88bc 8cba bfbc
000000d0: d271 593d e15b 65bd 44ae 61bc dedf 3ebd
000000e0: a69d 0e3c 700f 613d 86dc 533c c33a 40bc
000000f0: d96d b33b 3583 ab3d d888 413d 1794 863d
00000100: 5ab2 0cbd 4228 563d 5d16 56bd 1cd4 383c
00000110: 5778 d63c 532a 17bd dcce 223d e7e0 a4bd
00000120: 8b83 52bd 967e 00bc afbe e9bc 45c5 453d
00000130: 847d 2dbc bd31 06bd 3c89 293d 232a c43c
00000140: 36bf b83d 5b4a 033b 657f 3ebb dcf5 b6bd
00000150: 3ed9 f8bc b5a7 823d 6889 eebb a88f b3bc
00000160: b03e 1fbd 9bb7 a93c babe 9abc 189f afbc
00000170: e5dd 87bd b02d 18bd 4864 eebb d43f 91bd
00000180: 0655 d33c 1f3e 2abd cec5 9a3c dd36 0e3d
00000190: 774f 58ba 73e8 e53c 5d2d ca3d bc49 a8bc
000001a0: b95f a2bc 0d06 07bd 4b33 813d 9b18 cf3b
000001b0: d048 9dbc 8f35 273d 42c6 95bc eeb2 933c
000001c0: ec9e 70bc bcf6 2fbd c5c9 193c c356 403d
000001d0: b3b9 11bd 6cea 083d 97bf dbbc 1047 7a3d
000001e0: 5238 223d 10ae 213c 2f59 843d 95fe efba
000001f0: 4a37 0b3c ec01 e93c 167c 4e3d 04f9 86bc
00000200: c0ec 3ebd 6c46 93bd 293c 843d 777d 96bd
00000210: 406f abbd fc15 3fbd 82eb 2bbc d666 11bc
00000220: 3639 4e3d 72d3 913c 2f0a 2fbc 3d3d 1ebd
00000230: 5601 143d 7497 c23b d022 c93b 61fe febc
00000240: 14fe 84bc 73d3 8c3a bd52 00bd 45ad eb3c
00000250: ccdf ba3c 25ba a0bc 2250 48bd e165 803d
00000260: 35ee 4dbd db01 863c 2f59 d33d 66a9 1c3d
00000270: 4794 aabc ef9d 1b3d d91a 2ebb ed1b 273d
00000280: 33f3 86bd da56 1fbd 2a80 a73d 0564 88bc
00000290: 41bc 0a3e 75a8 93bd 72eb 293c 3a2c ad3b
000002a0: 2b0e 08bd 6de5 053c 19bd ecbc 986e 083d
000002b0: 0e18 c5bc 73bb 823d 9e56 0e3b 6466 f5bc
000002c0: f82f a2bd e72c 933c 6326 bc3d 89d5 df3d
000002d0: 9c40 e43c 1600 95bd 47af 923c e107 24bd
000002e0: 74da 4a3d 8ec7 733d de7e 743d 07ae 793c
000002f0: 5ccb 5e3c 7954 5dbc 5c07 fdbc 0bb3 3cbb
00000300: 99dc 1fbc 7da0 6f3a e38c aa3c 6625 853b
00000310: 13f5 933d c12f 68bc 5dda a6bd 6bec bb3c
00000320: e324 d03c c9dc 6b3d b5db 423d 29d2 1cbd
00000330: 52be d0bd 9806 a13c 7d2e 033c 0590 a7bb
00000340: 789b e53c ad8c 24bd 6c74 1a3b e959 b53c
00000350: 79fe 97bd 26bd de3c d3b6 7ebd b67e 09bc
00000360: 8503 58bd f43d 0e3d 2657 aabd 70e3 923c
00000370: 98b0 693d c5d1 c2bc 734f 9dbd da4e fabb
00000380: 29cb 113c 9641 9cbd 3695 da3c 21d5 1bbd
00000390: c9d1 823d fe25 243d e808 2bbd 77cb 0bbc
000003a0: d1e9 debc 448e 6e3d 85ba 923c 9383 d8bc
000003b0: 2fb8 883d a6c8 983d 41c0 57bd 888f 0e3d
000003c0: 0200 76bd b489 f7bc 17a4 59bd 50e9 afbc
000003d0: fe35 a03c 09ec f63c 8e75 b63b d9a9 b23d
000003e0: dee1 ee3c b1ea 6dbd 50b5 ea3b e57c 103d
000003f0: 1776 b7bc ecb6 d0bc 19be bbbd 942b 7bbb
-0.037557863 -0.010501819 -0.013768026 -0.05135403 -0.046462554 0.09864826 -0.019444035 0.017173862
0.05654752 -0.014623921 0.019290777 0.041449387 0.03490791 0.019136876 -0.026437858 0.052568827
-0.030271735 -0.05554407 -0.025947683 -0.047376055 0.026153173 -0.027393766 -0.051123254 -0.056342088
0.053669807 0.07848713 -0.034892056 -0.020137876 -0.06945709 0.031972338 -0.022255031 -0.022442311
-0.021868007 0.061494034 -0.042378325 -0.017990422 0.015773728 0.04924725 -0.0126273 0.080230415
0.01107636 -0.07562378 0.036324713 0.087138385 -0.01826041 0.052362442 -0.05031303 -0.02509779
-0.030000186 -0.057968035 -0.01666549 -0.023404382 0.053087063 -0.055995826 -0.013774458 -0.046600215
0.0087045785 0.054946363 0.012930995 -0.01173276 0.0054757413 0.08374635 0.047249645 0.06571215
-0.034349777 0.052284487 -0.05226742 0.01128104 0.02618043 -0.036905598 0.039748058 -0.08050709
-0.05139498 -0.00784268 -0.028533308 0.048283834 -0.010589007 -0.032762278 0.041390643 0.023945874
0.090208456 0.0020033333 -0.0029067632 -0.08933613 -0.030377027 0.06379644 -0.0072795637 -0.021919087
-0.038878143 0.020717433 -0.018889774 -0.021438166 -0.0663412 -0.037152946 -0.007275138 -0.070922524
0.025797378 -0.04156315 0.018893149 0.03472029 -0.0008251587 0.028064942 0.098719336 -0.020542972
-0.019821035 -0.032964755 0.063086115 0.006320072 -0.019199759 0.04082256 -0.018283013 0.018029656
-0.014686327 -0.042959914 0.0093864845 0.046957742 -0.035577487 0.033426687 -0.026824756 0.061102927
0.039604492 0.00986816 0.06462323 -0.0018310124 0.008497069 0.0284433 0.050411306 -0.016476162
-0.0466125 -0.07191166 0.06456787 -0.07348149 -0.08370829 -0.046651825 -0.010493161 -0.008874616
0.05034753 0.01780102 -0.01068358 -0.03863262 0.036134087 0.005938465 0.006138183 -0.031127157
-0.016234435 0.0010744169 -0.031328905 0.028769145 0.022811793 -0.01962001 -0.048904546 0.06269432
-0.050276 0.016358307 0.10319745 0.03824749 -0.020822657 0.037992414 -0.0026566295 0.040798116
-0.06589355 -0.038901187 0.08178742 -0.016649256 0.13548376 -0.07209865 0.010371076 0.005284813
-0.033216637 0.008172375 -0.028898763 0.033308595 -0.024059322 0.06383409 0.0021719108 -0.02995605
-0.079193056 0.017965747 0.09187009 0.109294005 0.02786284 -0.07275407 0.017905844 -0.040046576
0.04952474 0.059516482 0.059691302 0.015239245 0.013598289 -0.013508909 -0.030887298 -0.0028793241
-0.009757184 0.0009141041 0.020819133 0.004063296 0.072244786 -0.014171542 -0.08147118 0.022939881
0.025408214 0.057583604 0.04757281 -0.03828636 -0.10192551 0.019656464 0.008006689 -0.005113604
0.028028235 -0.04017322 0.0023567928 0.022137599 -0.07421584 0.027189802 -0.062186074 -0.008392027
-0.05273773 0.03472705 -0.083174035 0.017930716 0.05705318 -0.023781667 -0.07681169 -0.0076387944
0.008898535 -0.07629697 0.026682477 -0.038045052 0.063876696 0.040075295 -0.04175654 -0.0085323965
-0.027211102 0.058241144 0.017911205 -0.026429927 0.06675755 0.07460146 -0.052673582 0.03480485
-0.0600586 -0.03021703 -0.053135004 -0.021473557 0.019556995 0.030141847 0.005568213 0.08723802
0.029160436 -0.058085147 0.0071627274 0.03527536 -0.022395177 -0.025477849 -0.091671176 -0.0038325535

net.2.bias f4 [256]
00000000: b503 c63c 3253 08bd a64c 86bc 009d 203d
00000010: f683 8abd eb39 9b3c f8ca 0b3d 7d28 313d
00000020: b4d8 23ba 5110 e43c 3baf 273d 75d8 48bc
00000030: fe73 803d 0139 c93c 1083 1cbd da43 a6bc
00000040: 32e9 85bc 16a2 323d dc35 123d 5796 bf3c
00000050: 34e9 023d 2220 0d3d df1e 27bd ccf2 cd3b
00000060: 0ffa 38bd 9657 60bd ba24 223d 3460 f3bc
00000070: 16b4 73bd a2b7 85bd 4342 813d 99c5 abbb
00000080: 3953 f43c 3209 d93c 0540 02bd bd7a 52bd
00000090: 9792 943d f031 913c b110 633d 1c0f 93bc
000000a0: d10a 72bd 5352 00bd cf02 c0bc 4e8f 503c
000000b0: 074f aa3c bf62 96bc 4499 893d 8b2a 183d
000000c0: 8db5 05bd a835 05bd de07 30bd 5846 65bd
000000d0: e23f b0bc 2984 90bd 53cb 573c 594c 45bd
000000e0: 26f2 11bd d77a 6a3d 0b38 2d3c fb28 3f3d
000000f0: cecc d43c d539 3abd f999 3fbd a5da 27bc
00000100: fe7a d1bc 286a 05bd bb33 d8bc a99b 4d3b
00000110: 30c3 393d 1c3e 39bc 5028 e1bc 7131 f5bc
00000120: 427f 0e3c 66ca f7b9 9273 83bd fad0 15bd
00000130: 5648 a6bc 8fbf b13c cb3f 54bb 5850 343d
00000140: 495a 433d 61e7 f3bc 90a0 d33c 59f1 263c
00000150: 6fde 94bc 4db2 edbb 555c 03bc 9098 e2bc
00000160: 6966 833c a10c 103d bd2f e73b c056 db3c
00000170: 5069 663d 745b 403d 700f d53c 42c4 01bd
00000180: 567d 493d 8893 b9bc c012 5b3d 06dd 1ebd
00000190: 2e0d 463d 53d7 5ebd 333c 773b 8698 5ebb
000001a0: 2ad6 f63c 8c51 8fbc ea84 883c 7e2d 22bd
000001b0: c0e1 2c3c d250 95bb 0439 633d 0f8f 873d
000001c0: efb6 9d3c 12d8 9bbc 7003 573d 1c05 03bc
000001d0: 59db 68bd 2e58 a1ba 4564 1ebd 3ea3 26bd
000001e0: f501 543d 6042 08bc b258 4a3d adaa c63a
000001f0: 07de 42bd 94ec debc 1b7b 7dbb 0022 26bd
00000200: 0bdd 063d 7a59 0f3d 9b23 05bc 1ca3 263d
00000210: e2b7 933b 39e5 91bc d410 9cbc ffcd 7f3d
00000220: d46c 6fbd 26b5 7ebd 7cc1 70bd 9613 813b
00000230: ace8 803d ed78 82bc e8a1 0f3d 10b6 19bd
00000240: 22d7 5cbd 3e11 4c3d 6691 1bbc 5470 1ebd
00000250: df69 e73b 051a 003d 4523 453c 03e9 c53b
00000260: 6247 813d 4c7a f63c cc24 383c 8b29 3e3b
00000270: e8d2 8ebc 3ab5 143c 9fe8 353d ed48 073d
00000280: f5a0 7c3c 7048 31bd 4a95 19bd 72a4 f5bc
00000290: ccfd d8bc 297c 3c3d 4d2d 4a3d 08d8 59bd
000002a0: dbd8 dabb c22e 3dbd b85d 613d ef8e 82bd
000002b0: fa38 243a 2905 a13c 2df8 153d d9b4 90bc
000002c0: 9309 653c 1c8f efbc a45f 77bc e53c 103d
000002d0: 8b0c 8d3d 0d99 db3c 4cbf 4abd dbf8 e13a
000002e0: 68d5 babc 48a9 92bc 9f74 a53c 2e15 173c
000002f0: cff6 67bd b675 5bbd 24a7 bfbc 6f4f ef3c
00000300: 2566 8d3d 1101 f13c 740e 02bc 9383 cabc
00000310: 2f9a 2c3c 3f6f 5f3c f9ed c33c 5df7 933d
00000320: 2883 d23c e5f4 1a3c 2330 703d 1fdf 7bbd
00000330: 0edc e23c eb3c 20bc 109c 07bd cdf6 09bd
00000340: 1392 543d b560 8fbd dcbb 52bd 4f81 82bd
00000350: ed57 88bd 5a89 93bb 5250 ebbc 2e36 b1bc
00000360: 5709 e5bc 51ed c83c 0e12 21bb 4ca4 333d
00000370: 3d74 f73c c9c6 18bd 3a7d aabb d219 7cbd
00000380: 911f 1f3d e0d1 243b 6301 9fbc 8ac8 103d
00000390: 5a58 a63b 8fd6 4d3d c2ed ae3c 5e4f b5bc
000003a0: a3cb ff3c a823 063d be21 cbbc dbd3 e5bc
000003b0: 0d43 62bc 8043 083d c711 a6bc 6502 2ebd
000003c0: d839 a9bc 19e0 b03c 8614 64bc 92a9 04bd
000003d0: 049e 203d 483b 2f3d 51f3 16bd c38d 553d
000003e0: 2a2a 73bd 65c1 a7bc 7464 083c c842 d63c
000003f0: b631 fdbc 6d0e 8e3c 69a3 293d 401b adbc
0.02417169 -0.033282466 -0.01639397 0.039212227 -0.06763451 0.018948516 0.034129113 0.043251503
-0.0006250248 0.027839812 0.040938597 -0.012258639 0.06272124 0.024563314 -0.03821093 -0.020296026
-0.016346548 0.04361161 0.035695896 0.023387117 0.03196068 0.034454472 -0.040800925 0.006285047
-0.04516035 -0.05477103 0.039585806 -0.02970896 -0.059497915 -0.06529166 0.063114665 -0.0052420613
0.02982484 0.026493642 -0.031799335 -0.051386584 0.07254522 0.017724007 0.05543584 -0.01795154
-0.059092347 -0.03132851 -0.02343884 0.012729479 0.020789636 -0.018357633 0.06718686 0.037149947
-0.032643843 -0.032521874 -0.042976253 -0.05597529 -0.021514837 -0.070564575 0.013171035 -0.048168514
-0.03563132 0.057246055 0.010572444 0.04666994 0.025976565 -0.04546531 -0.0467777 -0.010245
-0.025571343 -0.03257194 -0.026391855 0.0031373298 0.04535216 -0.011306312 -0.027485043 -0.029930802
0.008697333 -0.0004726231 -0.06418528 -0.03657625 -0.020298164 0.021697788 -0.0032386656 0.044021934
0.047693525 -0.029773416 0.025833398 0.010189378 -0.01817247 -0.007253921 -0.008017619 -0.027660638
0.016040044 0.035168294 0.0070552514 0.026774764 0.056252778 0.046962216 0.026008338 -0.031681307
0.049191795 -0.022653356 0.05348468 -0.038785003 0.048352413 -0.054404568 0.003772509 -0.0033965423
0.030131418 -0.01749494 0.01666494 -0.039594166 0.01055187 -0.0045567537 0.055474296 0.06619083
0.019252269 -0.019023929 0.052493513 -0.007996824 -0.05684981 -0.0012309605 -0.038669843 -0.040683024
0.05175968 -0.008316606 0.049400993 0.0015157067 -0.047575023 -0.027212419 -0.0038678113 -0.04055977
0.032925647 0.03499744 -0.008126165 0.040682897 0.0045080045 -0.017809497 -0.019050993 0.062452313
-0.058453396 -0.062184475 -0.05877827 0.0039391024 0.06294379 -0.015926803 0.035066515 -0.037527144
-0.053916104 0.04982113 -0.009495115 -0.038681343 0.0070621814 0.031274814 0.012032335 0.00603974
0.06312443 0.030087613 0.011239242 0.002901646 -0.017434552 0.009076411 0.044411298 0.03302853
0.0154192345 -0.043281972 -0.03749589 -0.02998564 -0.026488207 0.046016846 0.04935961 -0.05318454
-0.006678683 -0.04618717 0.055021018 -0.06374919 0.00062645937 0.01965578 0.036613632 -0.01766436
0.013979333 -0.029243045 -0.015098486 0.035214324 0.06887158 0.026806379 -0.04949884 0.0017240302
-0.022806838 -0.017902985 0.02019721 0.009221358 -0.05663186 -0.053579055 -0.023395129 0.029212682
0.06904248 0.029419454 -0.007938016 -0.024720943 0.010534807 0.013637363 0.023917185 0.07224915
0.025697306 0.0094578015 0.058639657 -0.06149208 0.02769282 -0.009780149 -0.033107817 -0.033682633
0.05189712 -0.07000867 -0.051448688 -0.0637232 -0.066573955 -0.0045024576 -0.028724823 -0.02163228
-0.027958555 0.024527224 -0.0024577412 0.043857858 0.030206794 -0.03729895 -0.0052029165 -0.06154806
0.038848463 0.002514951 -0.01940984 0.0353475 0.0050764503 0.050253447 0.021353606 -0.022132572
0.031225031 0.03274885 -0.024796363 -0.028055122 -0.013809931 0.033267498 -0.020272149 -0.042482752
-0.020657465 0.021591233 -0.013920909 -0.032388277 0.039213195 0.042781144 -0.03685314 0.052137148
-0.059366383 -0.02047796 0.008324731 0.02615489 -0.030907493 0.017340863 0.041415606 -0.021131158

net.4.weight f4 [2, 256]
00000000: 06fc 80bc a7ba 223d a5e5 e1bc ca9e 7ebd
00000010: cff8 8cbc 1892 6bbc b8f2 74bd 4ec6 fdbb
00000020: 4657 273d a8e2 543d 10f7 a8bd d1d1 7f3c
00000030: 6118 ae3d b136 973d d707 58bd e845 19b9
00000040: a8c2 00bb ddd9 ac3d 160a f8bb e409 34bd
00000050: 02c1 61bc f985 52bc 5b6a 18bd 569b 5e3d
00000060: c055 c4bc 08dd 64bd 1828 f43c 300f bb3d
00000070: 5dbf a03c 6149 41bc 22f9 993d dc70 3fbc
00000080: ab47 e9bc 26eb f3bc 16f5 31bd 7d50 263d
00000090: c1a0 503d 70d2 e53c c9a8 d13d 15e7 8bbd
000000a0: c7fa 46bd 4b95 06bc a9e0 8eb9 5609 423d
000000b0: 9cc8 233d 4c9b 59bd c5f0 a33d e737 a9bc
000000c0: b15b 783c 3830 b03d e234 72bd 4a78 09bd
000000d0: 5b17 0e3d 0f1c f4bc 8a26 a63c a5f8 cd3b
000000e0: 5c40 a9bc fe5a d23d b7d9 56bc a73c 353d
000000f0: 9f3d 5b3d bda6 1d3d 714b a03a 8af3 60bd
00000100: bf8f a23d b213 5b3c 00af d0bc ebfd 66bd
00000110: 80ec 9cbd 66ce 9bbb d093 163d 6cfd 3bbd
00000120: 4f7b 733d 995d bdbd b018 d53c 26c0 a53c
00000130: d59e f23d 5f1e db3d b377 9abd d7be 4fbd
00000140: 4416 c3bd a3ba 56bd e40d 01bd 1ccd 113d
00000150: 741d eb3d 22a7 833d 5930 b1bd 2a69 6e3d
00000160: 8b3b 2fbd 2a4e 573d 880a 08bd 667c 943d
00000170: 1e68 aa3d 515e 9c3d 7b59 7ebd b149 2d3d
00000180: 4deb 783d cd22 843c 9fe9 b5bb 5d50 243d
00000190: 29bf b2bc 38a6 a3bc a857 fe39 4cb0 a33d
000001a0: 0a9f a3bd 1ca8 07bd 2b3c 953d 46b7 a53c
000001b0: 975c 6dbd 704a 363c 185d efbb a525 933d
000001c0: 9205 713d f5d5 2abd 90c2 1fbd 0378 b03d
000001d0: 9864 a23c f1b4 4abd e09b 923d 3db5 513d
000001e0: 1260 7e3d 0e1a a73c 49bd 24bd 71a0 2fbd
000001f0: 9f37 b6bd 7cc8 d53d 3142 59bc a96c 45bd
00000200: 790a fc3c 474f 063b aefb d33c 4ea8 15bd
00000210: 7ad3 663b d28d 49bc 124e 343d 123b c23d
00000220: 72ea 35bd e296 dc3a 9fd8 3fbd c52f 153d
00000230: 1663 783d 416b 2c3d 07e3 213c 4543 94bb
00000240: bbb3 1c3c 3636 7abd 2e97 943d 3dea d1bc
00000250: f411 873d b1b0 0fbd f9af 2e3d 4a9e f93c
00000260: ec36 a83d 8187 16bd 6ca8 553c f6e6 6fbd
00000270: ee70 4c3c efec ebbc 32c4 23bd ca06 293c
00000280: 2d56 9fbd 08a3 223d 7ca1 943d 40ba a0bb
00000290: e3ac 15bd ab08 dfbc 37d5 c7bb cead a7bc
000002a0: 604a 40bb 2216 26bd aac5 c0bc 419b 81bd
000002b0: 6a46 443d b71b 363d 150a e43d 8f15 45bd
000002c0: f272 623d 7b2d 7abb b05a 2a3d 3f8a 8dbc
000002d0: de85 a93d 3e41 263c 7118 17bd 99d2 36bd
000002e0: 743d 89bd 0a8c 9abd 003a bd3c 178f 823d
000002f0: 1d08 57bd 1a5e 11bd ae49 98bd 9c2b b23d
00000300: 3adc ad3d 2a25 b33d b38a 393c 6a0d 543d
00000310: 8707 91bd 23d0 08bd 4260 c53c dfed 4f3d
00000320: b410 e9bc 17ce 2f3d 8afc 1bbc c1c2 f1bc
00000330: 87e3 dfbc 30cc 8a3c 9f13 d6bc 7892 99bd
00000340: 506e 96bd b3c7 283d 386c 123c 85e4 643c
00000350: ac49 c3bc 6cea 1abd dbab 75bd 03f0 413d
00000360: 3104 4abc 7ee9 4abd bab6 acbc 4b6b a3bc
00000370: bde1 94bd 5777 1abd 2e19 9abd 2ec2 16bc
00000380: 4a08 6cbd 7808 64bc c748 83bc 546c fc3c
00000390: 54cc 163d a3e7 5cbd 42bd 5cbd baf4 4f3d
000003a0: a0f3 4c3c c067 273d 532b 223c d4cd e03d
000003b0: a67f 713d 75fe b93d adad 10bc 5019 153c
000003c0: 84b2 66bc 8ca5 813d e685 89bd 4d6b 913d
000003d0: 558c 8abd 6c91 013d 6440 c23d e89f af3c
000003e0: 48b6 a1bd eee2 a63c daa1 c23b f778 483d
000003f0: 345c aebd fdd9 abbc 9409 883d 9e73 623c
-0.015745174 0.039728787 -0.027575323 -0.06216315 -0.017208485 -0.014378093 -0.059801787 -0.007744587
0.040854715 0.05197397 -0.082502484 0.015613989 0.08500744 0.073834784 -0.05274185 -0.00014617259
-0.0019647274 0.084399916 -0.0075695617 -0.043954745 -0.013778927 -0.012849324 -0.037210803 0.05434736
-0.02396667 -0.055874854 0.029804274 0.09133756 0.0196225 -0.01179728 0.075182214 -0.011684623
-0.028476557 -0.029775213 -0.043446623 0.040604103 0.050934557 0.028054446 0.10237271 -0.06831185
-0.048579004 -0.008214305 -0.00027251735 0.047372185 0.039986238 -0.05312662 0.080049075 -0.02065654
0.01515858 0.08602947 -0.059132464 -0.033561982 0.034690242 -0.029798536 0.020282049 0.0062857443
-0.020660572 0.10271262 -0.013113431 0.044247296 0.053525563 0.038489092 0.0012229515 -0.054919757
0.07937574 0.013371395 -0.025474072 -0.0563945 -0.07662296 -0.004754829 0.03676206 -0.04589598
0.059443768 -0.09246368 0.026012748 0.020233225 0.11846701 0.10699152 -0.07542362 -0.05071911
-0.09525731 -0.052424084 -0.031507388 0.035596 0.11480227 0.064283624 -0.086518 0.05820576
-0.042781394 0.052564777 -0.03321317 0.072502896 0.0832064 0.07635177 -0.062097054 0.042306606
0.060771275 0.016129876 -0.0055515314 0.040115703 -0.021819668 -0.01997672 0.00048511964 0.0799261
-0.07989319 -0.033119306 0.07286867 0.020228993 -0.05794963 0.011126146 -0.007304799 0.071849145
0.058843203 -0.04170795 -0.03900391 0.086166404 0.019823357 -0.049488965 0.07158637 0.051198233
0.06210334 0.020398166 -0.04021958 -0.04287762 -0.08897328 0.1043863 -0.01326041 -0.04819933
0.030766713 0.002049403 0.025876846 -0.03653746 0.0035221265 -0.012301879 0.044019766 0.09483923
-0.044413038 0.0016829635 -0.046837445 0.03642251 0.06064137 0.042094473 0.009880788 -0.0045246207
0.009564335 -0.061086856 0.07255398 -0.025624389 0.06595221 -0.035080615 0.04264829 0.030470986
0.082136005 -0.03675032 0.013040643 -0.05856987 0.012478096 -0.028799502 -0.03998203 0.01031656
-0.077801086 0.03970626 0.07257363 -0.004905015 -0.03654183 -0.027225813 -0.0060984152 -0.020468619
-0.0029341206 -0.04054845 -0.023531754 -0.063284405 0.047918715 0.044460025 0.111347355 -0.048116263
0.0552854 -0.003817408 0.041590393 -0.017277835 0.08277486 0.010147391 -0.036888544 -0.044634435
-0.067011744 -0.075462416 0.023098946 0.063749485 -0.05249797 -0.035490133 -0.07435928 0.08699724
0.084892705 0.08747323 0.011324572 0.051770605 -0.07081514 -0.03340162 0.02409375 0.05076396
-0.028450347 0.042921152 -0.009520659 -0.029511811 -0.027330173 0.016943067 -0.026132403 -0.0749864
-0.07345259 0.041206073 0.008936934 0.013970499 -0.02383884 -0.03782122 -0.059978347 0.047348034
-0.012330101 -0.04953908 -0.021083225 -0.019948622 -0.07269619 -0.037711468 -0.07524334 -0.0092015695
-0.057625093 -0.013918035 -0.016025914 0.030813374 0.036815956 -0.053931843 -0.053891428 0.0507705
0.012509257 0.040870428 0.009898025 0.109767586 0.058959626 0.09081737 -0.00883047 0.009100273
-0.014080647 0.06330404 -0.06714992 0.07100544 -0.067650475 0.031632826 0.09484938 0.021438554
-0.078960955 0.02037188 0.0059397044 0.048943486 -0.0851368 -0.020977968 0.06642452 0.013821511

net.4.bias f4 [2]
00000000: e707 a4bc e3bc fb3c
-0.0200233 0.030729717
