CartPole-v1.pth (torch_old, 4466 bytes, 4 tensors)

net.0.weight f4 [128, 4]
0.18508129 -0.049179576 0.1491212 0.24040413 0.1980961 0.06156599 0.8942642 0.49962062
-0.041305855 0.1277866 0.20963432 0.583874 -0.24009985 0.4004934 0.24588726 -0.49247473
0.04861034 0.3413633 -0.41380388 0.03193563 0.20878233 -0.00664457 0.7096736 0.13286036
0.36009654 -0.4007222 -0.12375588 -0.18879616 0.085347556 -0.4939339 0.19698806 -0.08402787
0.19886318 0.058552075 -0.6618417 -0.3213603 -0.42563298 -0.0042926655 0.70740443 0.54271024
-0.39658517 -0.39829555 0.53964865 0.63769484 -0.053722512 0.24411325 0.72253877 0.2551392
0.10127778 -0.015812805 0.87531126 0.54716957 0.124445885 -0.53566456 -0.48622862 -0.6053536
-0.07610979 0.4915579 0.45880157 0.52723694 0.08242378 0.11858498 0.20075704 0.037031125
-0.5519123 0.16162756 0.27122176 -0.5849584 0.19077013 -0.24369997 0.6349331 0.6151085
-0.13296539 -0.045235984 -0.18478368 -0.030608099 -0.47506517 -0.10058842 -0.3411537 -0.10498201
-0.44017142 -0.34560204 0.20497257 -0.16752501 -0.021431293 0.2189247 -0.15723805 -0.2440761
-0.2859644 0.07481807 -0.3899102 -0.40692437 0.040159576 0.1753554 0.9344705 0.6586043
0.28507894 -0.30556196 -0.12031394 0.1787857 -0.0971935 0.002979095 0.94705725 0.38528106
-0.33942237 -0.33833343 -0.170154 -0.45869437 0.21201172 0.022871433 0.7494646 0.675646
-0.40281135 0.46706665 -0.29974413 -0.41736045 0.4269527 -0.33979493 0.59953326 0.5934317
0.106001824 -0.012169786 -0.31151414 0.13254865 0.049938843 0.031672973 0.7655454 -0.03750821
0.37990305 0.5301566 0.7458693 0.5855606 -0.325936 -0.4715242 0.32813358 -0.14712998
-0.21627787 -0.44636625 0.20067424 -0.32415307 -0.18680719 0.31421095 0.88212633 0.46036744
0.33295485 -0.30130857 -0.16041915 -0.11051777 0.031680614 0.09559074 -0.6338628 -0.7029162
-0.32234973 0.058548685 0.20940147 0.32161885 -0.33831084 -0.14624913 0.54308146 0.5184367
0.05782355 -0.39662358 -0.05542147 0.28999096 -0.32592908 -0.12518094 -0.09665303 -0.07463873
-0.18078333 -0.40445665 -0.8959724 -0.5211847 0.36088252 -0.42812234 -0.7118834 -0.11493982
0.1272822 -0.21319917 -0.466059 -0.41117564 0.16472645 0.27905956 -0.3138516 -0.1863728
0.41811046 -0.30694512 0.27579948 0.52802896 -0.32888433 0.32226342 -0.2844106 0.029008789
-0.29286817 -0.019974558 0.0052504567 0.26005697 0.4547944 0.1400617 -0.23891903 0.12255464
0.40332788 0.34256944 0.12301431 -0.05098798 -0.33079976 -0.22332238 0.20572853 0.43474075
-0.3642054 -0.010625913 0.4659732 -0.37114385 0.10459248 0.11796492 -0.5004154 -0.06928392
-0.42451477 0.41485852 0.7358531 0.6029164 -0.25205866 0.4358025 0.19954348 0.7722549
-0.2959754 0.07781334 0.7962335 0.5382742 0.38765243 -0.036513478 -0.22195676 0.5095058
-0.3692889 0.30371076 -0.20343176 -0.64305514 -0.16237392 -0.4399435 -0.34693196 0.17233366
-0.24372947 0.4495753 0.28861412 0.50092655 -0.051981635 0.10490575 -0.6510869 -0.26237014
0.24769683 -0.14487936 -0.8918724 -0.62783664 0.43964806 -0.09025599 -0.31707063 -0.3033012
00000000: f385 3d3e 8670 49bd 3ab3 183e 802c 763e
00000010: b4d9 4a3e 9f2c 7c3d 80ee 643f 46ce ff3e
00000020: 5430 29bd 7eda 023e 61aa 563e c478 153f
00000030: bcdc 75be 790d cd3e dfc9 7b3e a625 fcbe
00000040: a31b 473d 2cc7 ae3e 1ade d3be efce 023d
00000050: 09cb 553e b1ba d9bb 2bad 353f 8c0c 083e
00000060: 935e b83e 762b cdbe b973 fdbd c853 41be
00000070: b3ca ae3d e7e4 fcbe 3db7 493e ce16 acbd
00000080: caa2 4b3e 4dd4 6f3d 756e 29bf 5689 a4be
00000090: 91ec d9be 7da9 8cbb 7518 353f 0fef 0a3f
000000a0: 360d cbbe 65ed cbbe 6a26 0a3f f83f 233f
000000b0: 230c 5cbd d3f8 793e 4df8 383f 9ba1 823e
000000c0: ba6a cf3d db89 81bc 6614 603f 4e13 0c3f
000000d0: 7cdd fe3d 5021 09bf f5f2 f8be 74f8 1abf
000000e0: 73df 9bbd 7aad fb3e 0ae8 ea3e 00f9 063f
000000f0: cccd a83d afdc f23d 4193 4d3e f3ad 173d
00000100: 204a 0dbf b281 253e 94dd 8a3e d5bf 15bf
00000110: 3f59 433e 7c8c 79be fa8a 223f c077 1d3f
00000120: 1428 08be 5e49 39bd ef37 3dbe d6bd fabc
00000130: be3b f3be 4d01 cebd b3ab aebe cf00 d7bd
00000140: 265e e1be c0f2 b0be 54e4 513e ad8b 2bbe
00000150: ae90 afbc cc2d 603e 0303 21be 16ef 79be
00000160: ed69 92be 373a 993d 4fa2 c7be 6458 d0be
00000170: 5e7e 243d 5e90 333e 7539 6f3f 4b9a 283f
00000180: def5 913e 9e72 9cbe 2867 f6bd 9913 373e
00000190: 630d c7bd ec3c 433b 5872 723f 8f43 c53e
000001a0: c5c8 adbe 0a3a adbe da3c 2ebe fdd9 eabe
000001b0: 9a19 593e df5c bb3c e9dc 3f3f 23f7 2c3f
000001c0: 4a3d cebe 5c23 ef3e 1078 99be 45b0 d5be
000001d0: 8b99 da3e 9af9 adbe 037b 193f 24eb 173f
000001e0: 7c17 d93d c863 47bc c87e 9fbe d5ba 073e
000001f0: ac8c 4c3d 85bb 013d c9fa 433f 35a2 19bd
00000200: a782 c23e 58b8 073f 4af1 3e3f 4de7 153f
00000210: 15e1 a6be 9f6b f1be 2001 a83e 3ea9 16be
00000220: f277 5dbe 1e8a e4be 8c7d 4d3e 64f7 a5be
00000230: 624a 3fbe 42e0 a03e 08d3 613f 48b5 eb3e
00000240: 0f79 aa3e 1e45 9abe eb44 24be 2457 e2bd
00000250: 88c3 013d 14c5 c33d d544 22bf 51f2 33bf
00000260: 060b a5be bfd0 6f3d 576d 563e 3aab a43e
00000270: 1437 adbe 55c2 15be 6307 0b3f 44b8 043f
00000280: 63d8 6c3d 3f12 cbbe a001 63bd b279 943e
00000290: 2de0 a6be 6f2f 00be 06f2 c5bd 31dc 98bd
000002a0: 441f 39be f114 cfbe 725e 65bf 5c6c 05bf
000002b0: 98c5 b83e da32 dbbe fe3d 36bf 9165 ebbd
000002c0: 4456 023e e250 5abe 499f eebe 9d85 d2be
000002d0: 0dae 283e e5e0 8e3e 28b1 a0be 83d8 3ebe
000002e0: 9312 d63e e927 9dbe 9735 8d3e e82c 073f
000002f0: 8763 a8be b6ff a43e 449e 91be d7a3 ed3c
00000300: d1f2 95be afa1 a3bc 060c ac3b 3026 853e
00000310: d0da e83e 566c 0f3e 31a7 74be edfd fa3d
00000320: fe80 ce3e 4365 af3e edee fb3d c6d8 50bd
00000330: 965e a9be 9fae 64be 80aa 523e 5796 de3e
00000340: 2179 babe 4f18 2ebc 0a94 ee3e 9106 bebe
00000350: 9534 d63d 9897 f13d 391b 00bf bae4 8dbd
00000360: 005a d9be 5668 d43e de60 3c3f bb58 1a3f
00000370: d50d 81be 8121 df3e 2055 4c3e 7fb2 453f
00000380: 168a 97be 9a5c 9f3d f5d5 4b3f 57cc 093f
00000390: 617a c63e 288f 15bd a248 63be f96e 023f
000003a0: 6f13 bdbe fa7f 9b3e 6a50 50be 439f 24bf
000003b0: 5945 26be 4640 e1be 11a1 b1be 3c78 303e
000003c0: 3894 79be bc2e e63e 3bc5 933e b93c 003f
000003d0: b2ea 54bd d3d8 d63d a2ad 26bf 6155 86be
000003e0: 3da4 7d3e 415b 14be c051 64bf e7b9 20bf
000003f0: 8d19 e13e 22d8 b8bd 1557 a2be 4b4a 9bbe

net.0.bias f4 [128]
-0.29140514 0.038026914 0.19301082 -0.41882232 -0.21080893 -0.11926567 0.1443999 -0.29986635
0.3970902 0.036219507 0.047640268 0.1034874 0.23757945 0.20645414 -0.05900421 -0.17372918
-0.272113 0.135758 -0.49655104 0.37318885 0.23744552 -0.27735242 0.3519794 0.21154423
-0.46254724 0.42464638 0.17999208 0.37560913 -0.027366089 0.11577483 -0.36901307 0.37242946
-0.19923998 0.017656406 0.4007546 0.30205148 -0.08640536 0.3505812 -0.13566858 -0.2740831
-0.29619312 -0.39343214 0.5022871 0.03797586 -0.016914085 -0.4038709 -0.052112132 0.33408293
-0.3604749 0.4311723 -0.49719217 0.1857332 -0.47673526 -0.37485334 0.26103348 0.34876695
0.44213367 -0.24370746 0.51509225 -0.38277844 0.284454 0.422279 0.16595428 0.0219468
0.062967025 -0.4518398 -0.016607031 -0.23017415 -0.26215553 0.45573926 -0.2831052 -0.48462692
0.32487103 0.24405324 -0.24429466 0.10406994 0.4218196 0.04683 0.1767189 0.46076703
-0.29191577 0.16580556 0.20885995 0.15996341 0.14798819 0.2042586 0.020492429 -0.025143968
0.09274041 0.29659364 0.40255004 0.2555981 0.15475868 0.0976318 0.45870534 0.17233717
0.29616407 -0.05286769 -0.41590106 0.40437192 0.06162205 0.4484304 0.22699529 0.40370354
-0.18659104 -0.52507603 0.404011 0.21258084 0.29466197 -0.48926392 -0.21463113 0.26607594
0.13976741 0.20237024 0.17934357 -0.13763265 0.3108465 -0.15892397 0.262301 -0.02270569
-0.5063292 0.23349833 -0.30578268 -0.5052091 0.3920735 -0.5480006 -0.036592796 0.35867885
00000000: 0e33 95be 1cc2 1b3d a1a4 453e e16f d6be
00000010: 4cde 57be 8f41 f4bd 91dd 133e 1588 99be
00000020: 684f cb3e e85a 143d 7122 433d 34f1 d33d
00000030: 0748 733e b768 533e 66ae 71bd 10e6 31be
00000040: 6552 8bbe 2504 0b3e f03b febe 9c12 bf3e
00000050: eb24 733e 2301 8ebe a536 b43e 0d9f 583e
00000060: fed2 ecbe 406b d93e d84f 383e d74f c03e
00000070: d92e e0bc 5b1b ed3d 48ef bcbe 13af be3e
00000080: 9105 4cbe 2ba4 903c b52f cd3e 7ea6 9a3e
00000090: 4bf5 b0bd 617f b33e b4ec 0abe 9f54 8cbe
000000a0: a0a6 97be f06f c9be e395 003f 938c 1b3d
000000b0: 688f 8abc 2bc8 cebe 8873 55bd eb0c ab3e
000000c0: 2b90 b8be 9ec2 dc3e f98f febe d830 3e3e
000000d0: a516 f4be c7ec bfbe 2ea6 853e 9591 b23e
000000e0: 585f e23e 738e 79be 16dd 033f 89fb c3be
000000f0: f4a3 913e f434 d83e ebef 293e c7c9 b33c
00000100: dbf4 803d 8c57 e7be 780b 88bc c6b2 6bbe
00000110: 4039 86be a856 e93e 2af3 90be 0521 f8be
00000120: 7f55 a63e 18e9 793e 6128 7abe 9f22 d53d
00000130: bdf8 d73e d0d0 3f3d cdf5 343e a8e9 eb3e
00000140: fc75 95be efc8 293e 62df 553e 73cd 233e
00000150: 378a 173e 2b29 513e bddf a73c b9fa cdbc
00000160: afee bd3d 1fdb 973e 0a1b ce3e c1dd 823e
00000170: 0f79 1e3e 2ef3 c73d 6ddb ea3e 2879 303e
00000180: d1a2 973e ca8b 58bd fcf0 d4be d609 cf3e
00000190: 6767 7c3d ab98 e53e 7471 683e 3bb2 ce3e
000001a0: b911 3fbe 626b 06bf 88da ce3e cbae 593e
000001b0: efdd 963e cd80 fabe 43c8 5bbe 1b3b 883e
000001c0: 301f 0f3e 253a 4f3e d7a5 373e 93ef 0cbe
000001d0: 4627 9f3e f7bc 22be 514c 863e 4801 babc
000001e0: ca9e 01bf 301a 6f3e 8c8f 9cbe 6255 01bf
000001f0: dcbd c83e c449 0cbf 54e2 15bd c1a4 b73e

net.2.weight f4 [2, 128]
0.002922248 -0.16944721 -0.16021745 0.13908547 0.027389018 -0.10447335 0.060554262 0.022219732
0.044082772 -0.10950241 -0.04755096 -0.22461858 -0.15636744 0.16634806 -0.1475616 0.0255591
0.030717105 -0.106438555 0.047303163 0.07776118 0.09563011 0.062181767 0.043609064 -0.3497995
0.012939134 -0.19270499 0.1990813 -0.16875926 0.14847371 -0.17106439 0.016034592 0.01843758
-0.027049 0.021405522 0.090625405 -0.08421747 0.071837746 0.18779726 -0.054772045 -0.12824175
0.027429212 -0.049097273 0.18577267 0.12607902 0.113197975 0.010063712 -0.14031401 0.055785347
0.062186744 0.0020482112 0.058206286 -0.0016186933 0.031237701 -0.022755258 -0.15767978 -0.07706949
-0.09135562 -0.0078050634 0.053899262 0.016887007 -0.08638101 0.020495718 0.20497686 0.00029172565
-0.042545002 -0.016773166 0.14951602 -0.07073991 0.059700016 -0.024608659 0.031531252 -0.00035483652
-0.06316464 -0.22824745 0.044969983 0.08922962 0.15837346 -0.10793253 -0.024714878 0.055483475
-0.07551095 0.10316654 -0.0077257548 -0.017393699 -0.24379161 -0.10340927 -0.05547357 0.022882
0.06303455 -0.11408685 -0.024411988 0.14902882 -0.004883224 0.056487307 0.10542615 -0.21123318
-0.07218107 -0.05467055 0.025815608 -0.18068545 0.075357296 0.00429291 0.014884902 0.13210839
0.03070342 0.035872538 0.2197518 -0.13185388 0.066466935 0.072273694 -0.024184031 0.0053786435
0.14933635 0.09310612 -0.12817094 0.11425754 -0.026306277 -0.033954863 0.025181621 0.11309364
0.0041397116 0.25294718 -0.110383734 0.016279891 0.013281192 0.054659925 0.0064596995 -0.053511634
0.013468919 0.20900762 0.1674721 -0.1497628 -0.06156998 -0.007600493 0.034893025 -0.10906724
-0.044131633 0.1839497 0.13335992 0.23619618 0.1449583 -0.16862427 0.016860789 0.032343637
-0.082341485 0.22056358 0.08190032 -0.015615357 0.06055365 -0.14319721 -0.11065741 0.28936344
-0.101570986 0.06657421 -0.16244298 0.092047244 -0.16239235 0.030450568 -0.0014307717 0.06911732
0.14485773 0.032407157 0.018578712 0.19507925 -0.024923816 -0.2366779 -0.00060448353 0.07571108
0.035848245 -0.07951945 -0.20585077 0.0109973885 -0.17256698 -0.023255877 -0.005484417 -0.042871725
-0.0050743697 -0.020504726 0.07118921 0.0076493258 0.036759816 0.0896009 0.12804155 0.20017256
0.060723905 0.060070384 -0.18136458 -0.045027252 0.041937 -0.08601636 -0.15588008 -0.103091575
-0.04082914 -0.028650036 -0.08848187 -0.038096923 0.05134751 0.17414764 0.0069482177 -0.011014544
0.056521803 0.17637606 0.052459802 -0.11251916 -0.14499396 0.07580807 -0.021874657 -0.016718209
0.037706763 -0.08526333 0.10782265 -0.051089328 0.23472536 0.113974094 0.05714542 -0.02276399
-0.1546328 0.05620282 0.05759383 -0.104384914 0.044800412 -0.030401178 -0.15619303 0.108209684
-0.009606574 -0.027465789 0.007767654 0.02084704 -0.15800647 0.04219431 0.088037714 -0.10510931
0.09319575 -0.079909526 -0.102195494 0.05480616 -0.14165367 -0.0043823654 -0.01486956 -0.01502718
-0.14781582 -0.09666834 0.16004959 -0.14427261 0.15327847 -0.019247515 -0.12593251 -0.057829756
0.057984807 -0.25999042 0.06663362 0.0071154125 0.13148136 0.036641363 0.09135135 -0.02147366
00000000: 3083 3f3b 9283 2dbe 0b10 24be 6c6c 0e3e
00000010: ef5e e03c 20f6 d5bd bf07 783d 2806 b63c
00000020: 2390 343d cd42 e0bd ccc4 42bd 6a02 66be
00000030: c91e 20be 2557 2a3e 631a 17be 5161 d13c
00000040: 70a2 fb3c 75fc d9bd f6c0 413d 4141 9f3d
00000050: b8d9 c33d 4fb2 7e3d 6b9f 323d ec18 b3be
00000060: a9fe 533c 7554 45be f8db 4b3e 3acf 2cbe
00000070: 7e09 183e 812b 2fbe fa5a 833c 680a 973c
00000080: dd95 ddbc a25a af3c d099 b93d 357a acbd
00000090: ab1f 933d ed4d 403e a758 60bd ce51 03be
000000a0: 3ab3 e03c 391a 49bd 313b 3e3e dc1a 013e
000000b0: 57d4 e73d 44e2 243c 7aae 0fbe 2d7f 643d
000000c0: 87b7 7e3d 483b 063b b769 6e3d 562a d4ba
000000d0: 35e6 ff3c 3c69 babc cf76 21be 9cd6 9dbd
000000e0: a818 bbbd 9ec1 ffbb 79c5 5c3d 9f56 8a3c
000000f0: 87e8 b0bd a3e6 a73c 74e5 513e c1f2 9839
00000100: ab43 2ebd e167 89bc ba1a 193e 16e0 90bd
00000110: 0188 743d 1998 c9bc ea26 013d 5a09 bab9
00000120: 765c 81bd b3b9 69be 7232 383d 05be b63d
00000130: a72c 223e bb0b ddbd db76 cabc a442 633d
00000140: 7ca5 9abd fb48 d33d 5428 fdbb 3b7d 8ebc
00000150: 82a4 79be 3dc8 d3bd 4138 63bd 0873 bb3c
00000160: 4218 813d 5ea6 e9bd a6fb c7bc 039b 183e
00000170: 7403 a0bb 3c5f 673d aae9 d73d 834d 58be
00000180: abd3 93bd 3aee 5fbd 417b d33c 9b05 39be
00000190: ed54 9a3d 8aab 8c3b cedf 733c 6c47 073e
000001a0: bd85 fb3c 15ef 123d 9e06 613e b404 07be
000001b0: d11f 883d 3b04 943d 971d c6bc 553f b03b
000001c0: a1eb 183e 6cae be3d 3e3f 03be dbff e93d
000001d0: 4380 d7bc 4114 0bbd b049 ce3c a39d e73d
000001e0: 6ba6 873b 4b82 813e de10 e2bd 685d 853c
000001f0: 5b99 593c 16e3 5f3d e3ab d33b 042f 5bbd
00000200: beac 5c3c 1806 563e ce7d 2b3e 6b5b 19be
00000210: ce30 7cbd 8e0d f9bb fdeb 0e3d a55e dfbd
00000220: 5fc3 34bd 4f5d 3c3e 818f 083e 69dd 713e
00000230: f36f 143e d7ab 2cbe a31f 8a3c c37a 043d
00000240: a7a2 a8bd 6bdb 613e 5bbb a73d 8ed7 7fbc
00000250: 1b07 783d 4aa2 12be 5aa0 e2bd 7227 943e
00000260: 7304 d0bd 0f58 883d 7457 26be 4483 bc3d
00000270: 2e4a 26be 7873 f93c bb88 bbba 628d 8d3d
00000280: 9655 143e 5ebd 043d 6232 983c dbc2 473e
00000290: 082d ccbc b15b 72be 3476 1eba 690e 9b3d
000002a0: 9cd5 123d 18db a2bd 8bca 52be 642e 343c
000002b0: 66b5 30be 1c83 bebc a0b6 b3bb 439a 2fbd
000002c0: e646 a6bb 87f9 a7bc a6cb 913d 32a7 fa3b
000002d0: 7691 163d ad80 b73d 531d 033e 09fa 4c3e
000002e0: a1b9 783d 5d0c 763d a3b7 39be 7f6e 38bd
000002f0: 22c6 2b3d 5829 b0bd 079f 1fbe ad21 d3bd
00000300: 753c 27bd 7bb3 eabc fc35 b5bd 850b 1cbd
00000310: c451 523d c253 323e e0ad e33b 5976 34bc
00000320: 6883 673d ed9b 343e 17e0 563d 7270 e6bd
00000330: 4c79 14be 4341 9b3d 7b32 b3bc a0f4 88bc
00000340: 6872 1a3d 8a9e aebd 1fd2 dc3d 0b43 51bd
00000350: d85b 703e 406b e93d 5111 6a3d 8c7b babc
00000360: 1058 1ebe ee34 663d 82e7 6b3d c2c7 d5bd
00000370: a380 373d e40b f9bc 11f1 1fbe 0a9d dd3d
00000380: e464 1dbc efff e0bc ce87 fe3b 69c7 aa3c
00000390: 73cc 21be f1d3 2c3d 1e4d b43d 8d43 d7bd
000003a0: 6add be3d 9ba7 a3bd df4b d1bd 6d7c 603d
000003b0: a90d 11be f299 8fbb 749f 73bc 9034 76bc
000003c0: 085d 17be 0dfa c5bd 0ae4 233e 33bc 13be
000003d0: 08f5 1c3e f7ac 9dbc 74f4 00be e5de 6cbd
000003e0: 7a81 6d3d 771d 85be 3577 883d 6828 e93b
000003f0: 0da3 063e 4115 163d 6b16 bb3d 87e9 afbc

net.2.bias f4 [2]
-0.005049236 0.0052281977
00000000: 1074 a5bb 4d51 ab3b
