CartPole-v1_vpg.pth (torch_old, 271517 bytes, 6 tensors)

net.0.weight f4 [256, 4]
00000000: 817d cfbe 2ce5 2e3e 1647 26be 1f9d 7a3b
00000010: 7e2f 6cbe f37c d23e 8564 2ebe c5c7 f43d
00000020: 634a 60be 07e7 723d 7c03 0abd 46eb e1be
00000030: 3862 34bd 9206 b8be ae54 023f 2d08 fb3e
00000040: b855 cd3e dca6 c53d cbe2 f9bd 44e0 adbe
00000050: e847 94be 110c be3e f2da 1f3f 9fee 503e
00000060: a6cc c5be fad5 8bbe c3c4 923e 9f46 2ebe
00000070: 09f8 fb3e 75dc dbbe ee12 6f3e a006 923e
00000080: 08c1 d63e 2fa2 0abe e0f3 d3bd cd7d b13e
00000090: 2813 babe e714 e4be e2f1 5ebe b492 c4be
000000a0: bad7 0dbe 6d7d cabd c631 53bd 8d28 893d
000000b0: ec9c 6f3e e8a9 a4be 7c66 063f e4ca ba3d
000000c0: 3c19 57be 9018 e73e 37a4 663d cce6 1abe
000000d0: 83f0 7bbe ca1e 3f3e 4b88 0bbf da84 c6be
000000e0: 0d34 3b3e a395 e0be 4766 ec3e d5d7 803e
000000f0: 9784 afbe e3e7 ea3e c1fb 56be d2d2 233e
00000100: 648f abbd 23a5 4c3e a891 8f3e 2ba5 bcbd
00000110: 2993 353d e4cb 74bd 270a 253f d660 dd3e
00000120: a80d 593e 70c2 aabe 6d4a 9b3e e72d bdbe
00000130: c546 ac3c bc0a dabe b550 ffbe c266 f63d
00000140: 6878 a3bb 9cb7 acbe 45de d6be a698 0ebf
00000150: 327a ae3e e170 673e ef0d 1c3f 3639 dbbd
00000160: 6b62 993e 75bf 9bbe 5fb7 0d3f 2c78 293e
00000170: a242 d3bd 3224 7bbe 09d1 8cbe fd43 fdbe
00000180: b94e 0ebe 94ab 81bd aff2 dc3e 8004 51be
00000190: 596f adbe 3f85 e4be d964 cf3b 1ee7 863e
000001a0: ce4a b6be 579b c83e 7552 c9bd 0987 c43c
000001b0: d9d6 323d 9a6e e43d 9e32 dd3d 6f3f 953e
000001c0: d46e aabe 77b5 d7be 89b9 02bf 2aad e1be
000001d0: c18c 75be c0dd 023f 3d9f a43d 7be5 d43e
000001e0: 91ba acbe 1dfb e63e 707c 963e d2a1 483e
000001f0: 9665 d43e f03a 003f 07be a63e a631 833c
00000200: af1e e73e 6372 9ebe 2acd 31be 4962 b1be
00000210: 429e 3fbe a71f 86be 9448 873e 8055 1b3e
00000220: 5357 6bbe e94f 683e a98e 9a3e 8064 70bd
00000230: 46f8 2dbe 237b babe 76d0 1f3e b941 c1bd
00000240: 4548 e03b ba5d 933e 2bd4 9d3e 2363 143e
00000250: cfec 633d 156c dfbe 1ebb babe 221d 9abe
00000260: 9208 b3bc 08f2 af3e 6e7a 2e3f 7de3 6a3e
00000270: 5f43 c9be 529f 433d 0f2d a1bd 7954 e93e
00000280: d4ea 34bd aa37 04bf 440d 1ebd 4185 7ebe
00000290: 62eb 7abe 01ab b9bd ba91 0e3e 7c12 f83e
000002a0: c1bf b1bc f4e6 e93e b0c7 8bbe f69c 943d
000002b0: baa7 d3be 6c18 453e eae1 aebe 025b a63e
000002c0: a7fc f4be 3679 85be 5dd0 8b3e 15f1 f83e
000002d0: 84f7 ef3d f551 9c3e 9689 b3be cacb 8abe
000002e0: b08b d23e 71ce bdbe 95d2 2c3e c49e 04bf
000002f0: 1091 65be 973b 8c3d 0cde 153e a047 e7bd
00000300: e4fe 8e3e 6be3 b2be a964 393e d7c4 58be
00000310: d550 27bb 0ca1 c3be 8ee8 3cbe a9d0 2ebe
00000320: 47c7 3fbd d9bb 35be 3cfe c6be d6c2 b9bd
00000330: d84f 683e 32e1 febe 905a ebbe 4f36 733e
00000340: fc89 d4bd d821 f0bd 155c ed3e b083 653e
00000350: 8d8b bd3e 3d96 b03e fe0f 943e 0eb3 5dbe
00000360: 0a9f 2d3e 17f5 e8bc c9ba 263e f0ed babe
00000370: af83 b43e ecee c9be eebf cf3e 376a 39bc
00000380: a23d cfbd 8c01 aabd 0f21 77be 4b15 363e
00000390: 7ac4 e93e 61f5 bc3e 8f32 11bd b23d 113f
000003a0: 11b8 89bc 5181 eb3e 180f 82bc eb3c 043f
000003b0: e4a6 6bbe 0890 c23e 3702 9d3e 91cc 113f
000003c0: 4c41 c33e d92d fe3e 973c 99bc 99e9 c53e
000003d0: f5d9 8e3e 3e7b 803d 24ea a3be b053 3dbe
000003e0: 8ff1 a4be 14ec f5bd ab62 b03e be70 9d3e
000003f0: 0b3b 85be b1e3 ec3e 7f3b 22be a3f2 adbe
-0.4052544 0.1707961 -0.16238055 0.0038240624 -0.23064992 0.41110954 -0.17030533 0.119521655
-0.21903376 0.059302356 -0.03369473 -0.44124812 -0.04403898 -0.35942513 0.5091046 0.49029675
0.4010446 0.096509665 -0.122014605 -0.33960164 -0.2896111 0.3711858 0.6244346 0.20403527
-0.38632697 -0.2731169 0.28665742 -0.17019127 0.49212673 -0.42941633 0.23347065 0.2852068
0.41944146 -0.1353843 -0.1034925 0.3466629 -0.3634274 -0.44547197 -0.21771958 -0.38393176
-0.13851824 -0.09887204 -0.05156114 0.066971876 0.23399705 -0.32160878 0.5250013 0.091207296
-0.2100572 0.45135927 0.05630895 -0.15127105 -0.24603467 0.18664089 -0.5450484 -0.38773233
0.18281575 -0.43864164 0.4617178 0.25164667 -0.34280846 0.4588004 -0.20994474 0.1599839
-0.08376959 0.1998487 0.28040814 -0.09211191 0.044329796 -0.059764758 0.64468616 0.43237942
0.21196616 -0.3335147 0.3033022 -0.36949083 0.02102984 -0.42586315 -0.49866262 0.12031318
-0.004988719 -0.33733833 -0.41966453 -0.55701673 0.34077603 0.22601654 0.6095876 -0.107042715
0.299579 -0.30419508 0.5535793 0.16549748 -0.103154436 -0.24525526 -0.2750323 -0.49465933
-0.13897218 -0.06331554 0.43153903 -0.20411873 -0.33874014 -0.4463291 0.0063291606 0.26348203
-0.35603946 0.39181015 -0.098301806 0.023990171 0.043661926 0.11153908 0.1080067 0.29149958
-0.3328768 -0.42130634 -0.51064354 -0.44077426 -0.23979475 0.51119614 0.08038185 0.4158133
-0.3373609 0.4511346 0.29391813 0.1959298 0.41483754 0.5008993 0.32566854 0.016014885
0.45140597 -0.30946645 -0.1736342 -0.34645298 -0.18712714 -0.26196024 0.2642256 0.15169334
-0.2298253 0.22686733 0.30186966 -0.058689594 -0.1698924 -0.3642207 0.15606865 -0.09436364
0.0068445527 0.28782445 0.30825934 0.14490943 0.05564576 -0.43637148 -0.36470884 -0.30100352
-0.021854673 0.34364343 0.6815556 0.22938342 -0.39309213 0.04775936 -0.07869922 0.4557226
-0.044169262 -0.51647437 -0.03858687 -0.2485552 -0.24503854 -0.090658195 0.13922778 0.48451602
-0.02169788 0.45684016 -0.27300787 0.072565004 -0.41338903 0.19247597 -0.34156734 0.32491308
-0.47849008 -0.2606904 0.27307406 0.4862143 0.11717132 0.30531278 -0.35065907 -0.27108604
0.41122198 -0.37071565 0.16877206 -0.5180476 -0.22418618 0.06847303 0.14635485 -0.11292958
0.2792884 -0.3493913 0.18104805 -0.21168838 -0.0025530357 -0.38208807 -0.18448088 -0.17071785
-0.046820905 -0.1774744 -0.3886584 -0.09070365 0.22686708 -0.49781185 -0.4596753 0.23751186
-0.10377881 -0.11725205 0.46359316 0.22413516 0.3702053 0.34489623 0.2891845 -0.21650335
0.169552 -0.02843718 0.1628219 -0.36509657 0.35256717 -0.39440095 0.40576118 -0.0113168275
-0.101191774 -0.08301076 -0.24133705 0.1778156 0.45657712 0.3690596 -0.035448607 0.56734765
-0.016811403 0.45997098 -0.015876338 0.51655453 -0.23012882 0.38000512 0.30665752 0.5695277
0.38135755 0.49644354 -0.01870565 0.38654783 0.27900663 0.062735066 -0.32014573 -0.18488955
-0.32215545 -0.12007919 0.34450278 0.30750078 -0.2602161 0.46267465 -0.15843008 -0.3397418

net.0.bias f4 [256]
00000000: 0f51 33be 760a 70bd dfc6 e3be 741f b9be
00000010: d190 8fbe 4575 573e d20d d83e f1bb 533d
00000020: 5ba7 d2be 0997 cebe c089 98bc 56f1 d53d
00000030: 787b a5be dd2e aebd 610e 28bd e3b6 debe
00000040: a2e7 e63d 321b 803e 0be0 2cbd d929 a03e
00000050: c5e6 663e 62cb 893e 13c4 b9bc 1e3d 76be
00000060: 6bdc bcbe 3c30 c53e 8d9d 313e 1184 333e
00000070: a217 6b3e d04e 01bc 5363 0cbf c123 ee3e
00000080: 8d34 c43e 1bf8 ca3d 5d45 e7be 43c1 e9be
00000090: 32d3 8b3e 21fb 9bbe e6d2 ab3d 928b b3bc
000000a0: d6c5 9e3e 7044 a9bd a65c 9cbe 8d0d d73d
000000b0: 3d99 f63e ec94 d23e f6ba 6b3e 1fc6 bbbe
000000c0: b3bd b0be 21da a53d dda7 71be 6bd7 9fbd
000000d0: edc5 80be 8a60 8bbe 0a5d e1be 6e15 89be
000000e0: 3085 f53d 6b87 fa3e b0e0 c83e 7920 eb3e
000000f0: 3a0e a4bd 5693 f9be 67b5 a9be 2ac7 573e
00000100: 06ab f2be ff85 a6be 7893 10be b2c1 c8be
00000110: 78df 82be 130c 9c3c 5a5f fdbe b0b8 2abe
00000120: f16d b13d 7af6 bdbe a8c8 efbe 300f 083e
00000130: 94bd b8be 408b a0be 7891 a4be b14d 8a3e
00000140: bd82 f4be e985 98be 2264 b8bd 1076 10bd
00000150: 8ed9 1abe 01b6 e13e ab05 acbe 763b 253e
00000160: 6d80 abbe f227 9e3e 277c e43e d41b babe
00000170: c97b 9ebe f547 6cbe 4db9 aa3e 1dec 6d3e
00000180: 595e 943e b91f 593e a4b4 efbe 2f32 a03c
00000190: 5f0c 823e 0032 48be e8f6 abbe 690b c9bd
000001a0: 64f7 1e3d 901b 68bc 26e3 bbbe 1f4c 7abe
000001b0: 7982 a5be 9ce7 40be 47e2 bdbe dd6e aabd
000001c0: d8db 02be d563 683e 6420 29bd e290 a63e
000001d0: eace 063e b64c d5be a1bc 98be fbbf 293e
000001e0: be21 36be 0c8a 0f3e bd09 dfbe c265 d23e
000001f0: 38a5 b6be 94da f13d 2097 7abd c1ae cebe
00000200: b3bf dabe 139b ad3e 3117 a1be 820c a6be
00000210: 1fbf b23d 28d6 2a3e a493 a4be 8335 76be
00000220: cc6c aa3d daf1 b53d 15af d8be df5c 603e
00000230: 1669 3c3e c587 f23e 0266 79be aa87 7ebe
00000240: b464 d13c 3c73 adbe 64b6 dcbe a2b5 253e
00000250: 42ae b6be 006e 723d 4e14 923e 7afb 523e
00000260: f034 83be 506c 99be 055a 463e 11fa e3be
00000270: 1277 90be e523 913e 4561 933e 9a96 adbe
00000280: 9139 c63e a7ce c2bd 5e0a 823e 93f9 dd3e
00000290: f181 d5bd 6531 9fbe d48b e3be 4b18 d33e
000002a0: 0003 f0be bf78 3abd eaa6 b13e 46f9 e33e
000002b0: 5f3d 02bf ff1e b83e 7454 cf3e 59b4 873e
000002c0: a46d 4f3e c20a ddbe aa36 20be cd26 803d
000002d0: ad62 9a3e bb47 9a3e 034a 8a3c 0117 1f3d
000002e0: c31d f33e 29ff 95bd 103f f6b9 14b8 a0be
000002f0: 7d98 d7be 70d8 76be 6e55 413e a737 163d
00000300: 5b06 15be 24f3 adbe 3e9f cf3e 0686 46be
00000310: 9980 b13e 3bdd 4cbe 395e 573e 56cc 9fbe
00000320: a0ff ccbe 1e3b 593e 4221 f33e 9c2f 083b
00000330: 77df edbe eeb3 ef3d f442 f4be c304 d3be
00000340: 37dc 74be 8f2d 063e 52f4 9abe 82af 36be
00000350: 8a3b f1be 3db9 d9be 9397 b7be cca3 343e
00000360: 50cd c6be b550 0b3e 3011 dfbe 185f b73e
00000370: b3fc 5b3d f926 d3be 2d24 743e b1ba d73e
00000380: b516 6f3e 02f8 71be 4ef7 9d3d bcfc 41be
00000390: acd4 f73e b035 783e 4c4f 6bbd e0eb cbbe
000003a0: 6863 9c3e 41df a33d f49d 003e d34a 9c3e
000003b0: cfb6 80be 9669 18be 966a 03bf 4fce ab3d
000003c0: 58f4 c4be d7e2 91be d4f3 1abe 0668 9fbe
000003d0: 5ba7 96bd 6b53 603e fce7 d93e f40f febe
000003e0: 1cc4 f23e cb57 723e 0fed ef3e 1e77 133e
000003f0: 56d5 d7be 2c01 f43e fb5b b9be cd39 d83e
-0.1751139 -0.058603726 -0.44487664 -0.3615681 -0.28040174 0.21040829 0.42198044 0.051692907
-0.41143307 -0.40349606 -0.018620372 0.10446422 -0.32320762 -0.08505032 -0.041029338 -0.43498906
0.11274649 0.25020748 -0.04220585 0.31281927 0.22548969 0.2691298 -0.022676503 -0.24046752
-0.36886916 0.38513362 0.17345257 0.17530848 0.22958234 -0.0078923255 -0.54839057 0.46511653
0.38321343 0.099106036 -0.45170107 -0.4565526 0.27309567 -0.30465034 0.08389835 -0.021917138
0.31010312 -0.082650065 -0.30539435 0.105006315 0.48163787 0.41129243 0.23020539 -0.36674592
-0.3451973 0.080982454 -0.23599191 -0.078047596 -0.25151005 -0.2722209 -0.44016296 -0.26774162
0.11988294 0.4893144 0.39233923 0.45923212 -0.08010526 -0.4874522 -0.33146212 0.21072069
-0.47396106 -0.32524106 -0.14118755 -0.39210278 -0.25561118 0.019048726 -0.4948681 -0.16672015
0.08663548 -0.3710211 -0.46832776 0.13287044 -0.36082137 -0.3135624 -0.32142234 0.270124
-0.47755995 -0.29789665 -0.09003474 -0.035268843 -0.15122053 0.4408417 -0.33598074 0.16135964
-0.3349642 0.3088985 0.4462597 -0.36349356 -0.30953816 -0.23074324 0.33344498 0.23234601
0.28978232 0.21203507 -0.46817505 0.01955518 0.25400063 -0.19550323 -0.33586812 -0.098166294
0.03881015 -0.014166728 -0.36696738 -0.244431 -0.32326105 -0.18838352 -0.37086698 -0.08321927
-0.12779176 0.22694333 -0.041290656 0.32532412 0.13164869 -0.41660088 -0.29831412 0.16577141
-0.17786309 0.14017504 -0.43562117 0.4109326 -0.35672927 0.118092686 -0.06117928 -0.40367702
-0.4272438 0.33907375 -0.31463006 -0.32431418 0.0872786 0.16683257 -0.3214389 -0.2404385
0.083215326 0.0888402 -0.42321077 0.21910428 0.18399462 0.4736921 -0.24355319 -0.24856439
0.025560714 -0.3387698 -0.43107903 0.16182569 -0.35679823 0.059186935 0.28531116 0.20603743
-0.25626326 -0.29965448 0.19370277 -0.44526723 -0.28215843 0.28347698 0.28785148 -0.33903962
0.38715795 -0.09512072 0.25398535 0.43354473 -0.10425175 -0.31092373 -0.44442618 0.41229472
-0.4687729 -0.04552531 0.34697658 0.44526118 -0.50874895 0.35961148 0.4049412 0.26504782
0.20256668 -0.4317227 -0.15645853 0.06257401 0.3015341 0.3013285 0.016880995 0.038840298
0.47483644 -0.073240586 -0.00046967762 -0.3139044 -0.42108527 -0.24106002 0.18880245 0.036674168
-0.14553206 -0.33974564 0.4055118 -0.19387063 0.34668425 -0.20006268 0.21032037 -0.31210583
-0.40038776 0.21213958 0.4748631 0.002078033 -0.46459553 0.11704241 -0.4770733 -0.4121457
-0.2391213 0.13103317 -0.30264527 -0.17840388 -0.47115737 -0.42524138 -0.3585783 0.17640609
-0.38828516 0.13605006 -0.435678 0.35814738 0.05370779 -0.4124067 0.23841925 0.42134622
0.23348506 -0.23629764 0.07713185 -0.18944067 0.48404443 0.2423923 -0.05744867 -0.39828396
0.3054459 0.08001567 0.12560254 0.30525836 -0.25139472 -0.14884028 -0.5133451 0.083889596
-0.3846767 -0.28493378 -0.15132076 -0.3113405 -0.07356139 0.21906821 0.42559803 -0.49621546
0.47415245 0.23666303 0.4686055 0.14400908 -0.4215495 0.47657144 -0.36202988 0.42231598

net.2.weight f4 [256, 256]
00000000: ef53 5d3d 12d3 2b3d 08e0 333d 1bad 72bd
00000010: 5e57 d13c 72cb 0bbc 2073 703d 6889 6bbc
00000020: 977c 84bd d087 913d 02a2 093d 4dc1 d6bb
00000030: 765d 4fbc f55b cb3b ba70 8cbd db21 9fbc
00000040: bf8f 403d ef48 c9bd 481e d4bc fd05 66bb
00000050: 6e6c 763d af26 a1bd fcee 91bd 9db3 1ebd
00000060: 77c2 51bd 9fa7 a63c ec50 303c 9174 7a3b
00000070: f9c4 b03d 7299 4d3c 15f7 7d3c cd37 8abc
00000080: d11e 54bb defc 683c 7083 0e3c 1acb 1fbd
00000090: cc9d 93bd b77b 523d 9678 ffbc a40a ee3b
000000a0: 3263 dd3c 789b 2f3c efd7 49bd 7392 8c3c
000000b0: 0891 553d 8b84 1c3d 3061 463d 94c8 c73b
000000c0: bc5a 99bb 20c8 a53d 4e2d a53c 3234 603d
000000d0: eaee acba e62c 57bd be29 b7bc bad5 47bc
000000e0: 85ea 08bc 49bb b9ba a991 aebd 32b8 12bc
000000f0: c375 27bc ad63 653b fcae 413d 3b46 a23c
00000100: 8c88 4fbc d7b9 04bd 886d 253c 3382 80bc
00000110: a56e 563d e062 983d 6200 c8ba e7c6 33bd
00000120: 9f3c 653d 28b0 8fbd 1c9e 34bd d33a 8e3d
00000130: 96a3 f03b fe5e b3bc 951f 69bd a541 e4bc
00000140: 3066 2a3d 6190 91bd fc22 ad3b cc04 0f3d
00000150: aeec 67bc 01f1 72bd 9cf7 f4bc b485 46bc
00000160: 2c63 82bd ccdc e53c 2d02 2ebc 24dc 28bd
00000170: 66fe 1dbd c51e 78bb e905 2a3d e8e2 82bb
00000180: 725f 5d3d f5b8 b33d 14c7 a6bd 088a e13c
00000190: f8ce 723d a410 a53d ac7b d9bc 9c74 e8bc
000001a0: 7546 a6bd e16c 8f3d 0179 593d 0b8e 953d
000001b0: 67b8 4c3d dcb7 0cbd 66bc 6e3c d09d 793d
000001c0: 3197 9f3d eb6a 80bd 34dd 693d 540f 09bc
000001d0: e3db 513d 3a26 d4bc 0a0e b53b e6ec 74bc
000001e0: 0a83 8a3d 2b8a 433d 428f df3c 750e dc3c
000001f0: 2ad6 3cbd a3d0 ec3d a735 f53b 0a5e 0dbc
00000200: 0679 243c ec2d 5b3d 5102 5c3c d314 eabb
00000210: f285 e03b 75eb 023d 6ed2 363d 4f73 2b3c
00000220: 4afb ffbc c564 943d 2470 d0bc 963a b0bc
00000230: aac9 c23c e37a 703d ddb2 0a3d a9a7 97bb
00000240: 8c6b 733c 8e43 fd3c 5b8c 56bc b907 eb3b
00000250: ef64 da3c 0a91 42bd 4a14 0ebd 3d27 d7bc
00000260: c182 50bd 1346 943b ace6 833c c16b eabc
00000270: a07b 1ebb ff8d 77bc 585a 73bd 6be3 3ebc
00000280: 860b 01bb b6e3 45bc 4584 9abc 30a1 0a3d
00000290: 4ca8 2cbd 4da8 3ebd 38d2 af3b b527 98bd
000002a0: 27ed 38bd 57d5 61bd 3e12 003c 524a 25bd
000002b0: 3199 843d 85c3 1d3c 4ba8 d53c fcdb 87bb
000002c0: 0b60 1f3c 31d2 563c fb40 43bd 8e39 eb3d
000002d0: 6d6e 4d3d 8c42 8cbd c36c c73c c022 8f3c
000002e0: d5ed 863a 3737 bd3c 9a6f 023c 83f4 27bc
000002f0: 637e 933b 79ba cc3c d463 963a a1ac afbd
00000300: 6811 543d 68bc ce39 a5b2 c53c d67b a93d
00000310: 6802 edbc ccdc ea3b b11c 0c3d ff3a 833c
00000320: 0cba 62bd 751e 9cbc 0eed 68bd b7d9 f33a
00000330: 1954 c13c 441a b03d fb0e f2bc 70ba c0bc
00000340: cabf 8e3c 2ca0 103d 5275 1dbb 8f9e 893d
00000350: a20c 58bc 10cb e43c 6991 6ebd 53e5 073d
00000360: d671 333d 96a4 973d 7914 9dbd 0a23 6dbc
00000370: 3423 213d 2d50 34bd d1f2 ad3d 1288 67bc
00000380: b998 9abc 00ef f53c 2a4f 18bc 685a 84bc
00000390: 3762 583d ce3d 8fbb f826 3cbb fb4c 98bc
000003a0: 3a3d 863d 4fdc cb3d ebea bc3d 98f9 0f3c
000003b0: 1363 82bc ec20 5b3d 9854 fbbc acc3 b93c
000003c0: 92fa b5bb 58d4 223d ebef 053d d4b2 3d3c
000003d0: ccc5 a53c 311a b63d 0453 92bd 9da4 22bb
000003e0: a792 543d b315 0b3d 4e4e ee3c ab4a 193d
000003f0: 7e6f 623c 1ffd 9d3c a8f2 9cbd 2625 413d
0.054035123 0.04194934 0.043914825 -0.059247117 0.025554355 -0.008532392 0.05870354 -0.014376022
-0.06469076 0.07105982 0.03360177 -0.006553805 -0.01265656 0.0062060305 -0.068574384 -0.019425323
0.047012087 -0.09828364 -0.025893345 -0.0035098784 0.060162 -0.078687064 -0.07125661 -0.03874551
-0.051210847 0.0203436 0.010761481 0.0038216452 0.086313196 0.012548791 0.0155008035 -0.016872311
-0.0032367 0.0142204445 0.008698329 -0.039012052 -0.07207832 0.051387515 -0.03118543 0.007264452
0.02702484 0.010718219 -0.049278196 0.017159676 0.052140266 0.03821234 0.04843253 0.006096909
-0.004680006 0.080948114 0.020163205 0.054737277 -0.001319376 -0.052533053 -0.022358771 -0.0121969525
-0.008356695 -0.0014170195 -0.08523876 -0.008955048 -0.010220948 0.0035002038 0.04728602 0.01980888
-0.012666833 -0.032403793 0.010096915 -0.015687084 0.052351613 0.07440734 -0.0015258903 -0.04389086
0.055966016 -0.07016021 -0.044096097 0.069448136 0.0073437197 -0.021895882 -0.056914885 -0.027863333
0.04160136 -0.07107616 0.0052837115 0.034916684 -0.01415555 -0.05931187 -0.029903226 -0.012116838
-0.06366572 0.028059386 -0.010620636 -0.041225567 -0.03857269 -0.0037860137 0.041509543 -0.0039943345
0.054046102 0.08775512 -0.0814344 0.027531639 0.059279412 0.080598146 -0.02654823 -0.028375916
-0.08118907 0.07003189 0.053093914 0.07302483 0.049980547 -0.03435503 0.014571285 0.060941517
0.07792509 -0.06270393 0.05709572 -0.008365471 0.05123509 -0.025897134 0.005525355 -0.014949059
0.06763275 0.04773919 0.02728999 0.026862362 -0.04610268 0.11563232 0.0074832025 -0.008628378
0.01003862 0.05351059 0.013428287 -0.0071435957 0.006851905 0.03196283 0.044634275 0.010464503
-0.031247754 0.07245783 -0.025444098 -0.021512311 0.023777802 0.058710944 0.033861984 -0.004628141
0.014857184 0.030916002 -0.013094987 0.0071725515 0.026659457 -0.0475016 -0.034687318 -0.026263827
-0.050905947 0.004524955 0.016101204 -0.028615834 -0.0024182573 -0.015109538 -0.05941233 -0.0116509
-0.0019690706 -0.012078216 -0.0188619 0.033845127 -0.042152688 -0.046547223 0.005365636 -0.074294485
-0.04514804 -0.055135097 0.007816849 -0.04035408 0.064745314 0.009629135 0.026081225 -0.004146097
0.009727488 0.013111637 -0.047669392 0.11485587 0.05015414 -0.0684863 0.024343854 0.017472625
0.0010294268 0.023097618 0.007961178 -0.010251167 0.0045011505 0.02499126 0.0011473843 -0.08577848
0.051774412 0.00039431755 0.024133036 0.08275573 -0.028931811 0.0071674343 0.03420705 0.016019342
-0.05535321 -0.019057492 -0.056866698 0.0018604313 0.023599671 0.0859876 -0.029548159 -0.0235264
0.017425437 0.035309 -0.0024026227 0.06719696 -0.013186606 0.027928859 -0.058244143 0.033177685
0.043809734 0.07404439 -0.076699205 -0.014473686 0.039340213 -0.044021774 0.08493579 -0.014131563
-0.018871652 0.03002119 -0.009296218 -0.01615639 0.05282804 -0.0043713814 -0.002870975 -0.018591395
0.06554647 0.0995413 0.092244945 0.008787535 -0.015916383 0.053498194 -0.030679986 0.022676311
-0.005553552 0.039753288 0.032699507 0.0115782805 0.020235918 0.08891714 -0.0714474 -0.0024817355
0.05189767 0.03395624 0.029090073 0.037424725 0.013820527 0.019285737 -0.076634705 0.047154568

net.2.bias f4 [256]
00000000: 79f3 eabc 942a 8dbc 17c2 ce3c d87a aabc
00000010: 9852 adbc 5243 b6bc 7d17 ddbc 743a a5bc
00000020: fdfb 91bc 607c f83c 3e90 62bd 33b1 873c
00000030: bbf9 5ebd bbcf 66bd b7ea eb3c 7a89 8fbb
00000040: d45e 0fbd f62d 133d c0ba 373d c647 2c3d
00000050: a98b 91bd 9b96 453d ce31 9a3b d9d4 3abd
00000060: 7c78 013d e7d8 213b 6e87 9a3c 6be8 f53b
00000070: b99c 04bc 2d1f 5b3c 7afa 243d 9f14 16bd
00000080: 6d64 143d bf64 5fbd 6d33 9b3c 248b 083d
00000090: c7d2 893d 259b 5a3d 049e 163d 743d 6bbd
000000a0: 2ade 323d 96d4 8d3c 92f0 d63c 3a11 fabc
000000b0: 28f4 e9bc d08d 32bc c287 e33c 57dc 773d
000000c0: 0659 1ebc d9ac 663d 60b7 eabc b9c2 c13c
000000d0: 2139 1a3d b855 013c fb22 ed3b d226 9abb
000000e0: c6cc 2abd ce7b 553d cf28 13bd 624d 7c3d
000000f0: b970 ee3a 5247 133d 6b0a dbbc 89f4 61bc
00000100: 80ac d13a a826 693d 3196 913c eea5 68bd
00000110: 96f0 e8bc a091 9abc 2e56 893d bf6b 66bd
00000120: 5047 0abc 41d9 b53c 8003 343d e31c d5bb
00000130: d1ba 32bd d6f9 6abd 4d7f 51bd f162 303d
00000140: e58d 7ebc a918 e4bc 4694 8d3d d382 353b
00000150: 8a4c 5bbb 40e7 04bd cfae 16bd a2a0 70bd
00000160: 7475 b53c a3b9 493d 4c2a 4d3d 7b8d 34bd
00000170: f4f5 5c3d 1126 99bc d129 cb3c 3baf 823c
00000180: 498a 913c 85cb 5b3d 5211 2c3d 6e32 643d
00000190: 2b55 f0bc a88d cdbb a1d8 38bc 1222 52bd
000001a0: ec7f 8a3d b0bc 14bc ec8d bf3b 3776 223d
000001b0: 4b21 883d 91eb 88bc 38f1 a4bc 4e74 a4bc
000001c0: b680 cd3c 89a3 403d 7a4d a03b ef48 56bd
000001d0: 426e b63b 4849 583d fbaf 1bbd 8f57 8abd
000001e0: adc5 1abd 4b07 1e3d 6608 a73c 627e 0a3d
000001f0: bbda 7a3d f8bb 4fbd 21de 603d cab6 acbc
00000200: 665c 863d ebd9 fcbc f361 7a3d 7885 303c
00000210: 5c40 983c 640a 003d 8026 dc3c 1dcf 553c
00000220: 668f 7e3d ffe9 89bd 6f73 98bc 5413 943c
00000230: 4eaa 1d3d b9b4 fe3c dc76 a73c 32ee 90bc
00000240: ebe7 8dbc cb4a 6e3d 125c 113d a0a9 85bd
00000250: f4f9 2bbd da07 fabc 0b1f 1f3d 42ad bc3b
00000260: 5291 413d f8d7 8d3d f2cd 593d 3670 3f3d
00000270: 66d9 edbc 469a b13c 7fa2 9c3a 93a3 52bd
00000280: 3e8b 3cbd 3751 3fbd d6c4 993c ba32 1f3d
00000290: 53b4 323a 4260 3dbd fdff 06bc d627 7f3d
000002a0: 2e9c 04bd 59b2 d4bc 696e 28bd 4466 6b3d
000002b0: f117 3f3c 645f 1ebd b794 d63b fc2b 103d
000002c0: aa0d 303d 166f 813c 42a3 54bd 09e8 d33c
000002d0: 1e53 ab3c edf7 79bc fca9 6a3c c022 b4bb
000002e0: 57f6 2a3d d826 d23c 489b 2dbc 5f82 c03c
000002f0: a519 44bd 0f81 3b3d 4f55 18bc 1040 6dbd
00000300: f4fb c13c 242e 8c3d 6fb6 023d e72a 06bb
00000310: 7dea 603d 78fe 8ebc f917 4c3c 2858 d3bc
00000320: f6b5 1bbc 49bf 22bd a41c 853d 3bb0 fa3c
00000330: 03e4 2f3b f836 9a3a f96e f0bc 09cd 7bbb
00000340: 4ba2 4ebd b43a 14bd 5a14 0cbd 13f8 623c
00000350: 4f2d d1bc 3fed 16bc 778f c0bc bf8d 3f3c
00000360: 9903 8abc bc76 1bbc 1dba 5d3c 4388 72bd
00000370: a21e 643d b4e0 6e3d 08a0 46ba ccc1 11bd
00000380: dd33 c0bc d4b9 2ebd 45f5 6dbd 3bab 86bd
00000390: 8d5c 913c 9ddf e2bc 25e3 a9bc c80d 113d
000003a0: e054 8dbc 84e1 2cbd 1f84 903c caa5 8f3c
000003b0: 7dfb bfbc fce8 4d3d 4a52 c1b8 2b60 5abc
000003c0: be62 64bb cc0f 27bc 11e7 85bc 4b2b c0bb
000003d0: 74a3 4c3d 5619 e53c d75e 1d3b 7964 21bd
000003e0: 906b 43bc 5004 9a3c 300b 68bc 2994 5d3d
000003f0: d5bd 8d3b 2164 74bd cb05 eb3c c60e 0c3d
-0.02868055 -0.017232217 0.025239034 -0.02081053 -0.021157548 -0.022248898 -0.02698874 -0.020169474
-0.017820353 0.030332744 -0.05531334 0.016563987 -0.05443738 -0.05635045 0.028798444 -0.004380402
-0.035002545 0.035932504 0.044855833 0.042060636 -0.07106716 0.04823933 0.004705644 -0.045613144
0.031609043 0.0024695934 0.018863406 0.007504513 -0.008094006 0.013374132 0.040277936 -0.03664076
0.036228586 -0.05453944 0.01894542 0.03333582 0.06729656 0.053370614 0.03677179 -0.057431653
0.043668903 0.017313283 0.02623776 -0.030525792 -0.028558806 -0.010898069 0.027774695 0.060512867
-0.0096647795 0.056317184 -0.028651893 0.023652421 0.03765214 0.007893972 0.007236836 -0.004704335
-0.041699193 0.052120022 -0.03592759 0.061597236 0.0018191553 0.03595669 -0.026738366 -0.013791212
0.0015996844 0.05692163 0.017771812 -0.056798868 -0.028435033 -0.018868268 0.067058906 -0.0562551
-0.008439854 0.022198321 0.04394865 -0.0065036877 -0.043635193 -0.05736717 -0.051146794 0.043063108
-0.01553676 -0.02784379 0.069130465 0.0027696386 -0.003346237 -0.0324471 -0.036787804 -0.05874694
0.022150733 0.049249303 0.050089166 -0.04408024 0.053945497 -0.01869491 0.024800213 0.015952697
0.017766135 0.05366089 0.042008705 0.055712156 -0.029337486 -0.0062729903 -0.011282117 -0.051302023
0.067626804 -0.00907819 0.005845776 0.03966352 0.06646975 -0.01671389 -0.020134553 -0.02007499
0.025085788 0.04703096 0.0048920484 -0.05231565 0.005567343 0.05280426 -0.038009625 -0.06754982
-0.037786175 0.038581174 0.020389747 0.033811934 0.061243754 -0.05071637 0.05489934 -0.021083254
0.06560592 -0.03086563 0.061128568 0.010774009 0.018585376 0.03125991 0.026873827 0.013049868
0.062148474 -0.06734084 -0.01860973 0.018075623 0.038492493 0.031092035 0.020442419 -0.017691705
-0.017322501 0.058176797 0.035488196 -0.06526494 -0.04198642 -0.030521322 0.038847964 0.0057579586
0.04725773 0.069259584 0.05317492 0.046737872 -0.029034328 0.021680009 0.0011950283 -0.051425528
-0.04603123 -0.046708312 0.018770617 0.038866736 0.00068170315 -0.046234377 -0.008239743 0.06229385
-0.032375507 -0.025963949 -0.04112092 0.057470575 0.011663423 -0.03866519 0.00654849 0.035198197
0.04298178 0.01580004 -0.051913507 0.025867479 0.020913657 -0.015256864 0.014322754 -0.0054973066
0.041738834 0.025653288 -0.010596104 0.023499666 -0.04787602 0.045777377 -0.009297683 -0.057922423
0.02367971 0.06844738 0.031912263 -0.002047235 0.054911125 -0.017455325 0.012456887 -0.025798872
-0.009503832 -0.039733205 0.064996034 0.030601611 0.0026838786 0.001176565 -0.02934979 -0.003842177
-0.050447743 -0.036188796 -0.034199096 0.013853091 -0.0255343 -0.009211837 -0.02350591 0.01169151
-0.016847419 -0.009488758 0.013533142 -0.05921198 0.055693276 0.058319762 -0.0007576947 -0.03558521
-0.02346223 -0.04265769 -0.058095235 -0.06575628 0.017744327 -0.027694518 -0.020738194 0.035413533
-0.017252386 -0.042207256 0.017641125 0.01753511 -0.023435349 0.05027102 -9.218285e-05 -0.013328592
-0.0034848894 -0.010196637 -0.016345533 -0.005864536 0.04996057 0.027966183 0.0024012828 -0.03940246
-0.0119275 0.018800884 -0.014162824 0.054096375 0.0043256083 -0.059665803 0.028689286 0.034193777

net.4.weight f4 [2, 256]
00000000: ef20 bb3d 1924 44bd 0ae8 64bd 0617 e2bc
00000010: a167 4d3c 4a64 763d cd38 cc3d 90bb f83c
00000020: 03c0 903c a51a 113d f0ce b53c cb87 b83c
00000030: fc26 39bc a5c6 18bd 1b0f 73bc 827c a43b
00000040: 7840 c73c a2fc 2d3d f2f9 9dbc 3dff 8bbd
00000050: accb 43bd 49ef 153d c39d 74bd a3b8 ea3c
00000060: 9848 a73c 88ab b63d 29e2 64bd 298f f73b
00000070: 7b08 b83d 97cb 513c daa2 7ebd 60ad 9b3c
00000080: c488 36bd 5f78 be3c 43e3 b23d a7aa 033d
00000090: 3926 ac3b 05b4 aabd f139 4ebd 704a 6fbd
000000a0: 6b70 9c3c c4b0 2bbc 3dac 6a3d a46b 5ebd
000000b0: fc6c 6b3d 364e 78bc f7da 10bd ede8 8a3c
000000c0: 39a3 aabd 521e dbbc aaa7 debc 6476 e0bb
000000d0: 44c6 863d 6e12 8c3d 42ed 8bbd 4562 80bc
000000e0: f4f2 7bbd 4a49 b03d cb97 293d 8c1a e53c
000000f0: 9b38 16bd a9f8 55bd 1625 51bd d9f7 f13c
00000100: 38a0 6b3d 9b0e b2bd 70f1 193d 531f 563d
00000110: 514a d73c d06e c83d ceb3 5bbc 783b a7bb
00000120: 3350 e13d 83db 9b3d 2918 c03c b327 d1bb
00000130: cfa9 533d eb8e 82b8 d8d5 463d f00f 2cbb
00000140: a3f2 933c db32 3bbd 9d35 c6bc 7ceb 5b3d
00000150: 880f 933c 0498 a5bc 2d28 42bd 9b99 2ebd
00000160: b729 7abd d689 bdbd b2cb b0bd 453b 383c
00000170: 308e 88bd 7599 72bd 722c 943d d6c5 6cbd
00000180: 92b7 6dbd bf94 b63d 9981 a73d ac9f a7bd
00000190: 7af5 8d3d b9f7 25bb a55d 70bc 36c1 603c
000001a0: 795d 233d 90e2 46bd 6815 b03d 348e 84bd
000001b0: b0d8 67bd 0a70 37bb 4c7b b43c d528 8b3d
000001c0: 6b97 573c 7713 45bd 4370 4fbd 9d56 6abd
000001d0: bdc4 133d 36fb 61bc 1a7d 123d e10d 29bb
000001e0: 7e50 453d 919c 0b3d 14e2 613c d15b 8c3d
000001f0: 2433 573d 61a1 143b 1048 92bd a6c5 943d
00000200: 6ef3 93bd e7b8 7cbd c54c af3b 5bc6 b8bd
00000210: 059a 503d 76f2 bfbd 3b43 743d f8cd 893d
00000220: 5553 753d aee1 373a cf64 643c 5029 9dbd
00000230: 8a8f db3c 1da2 cf3d e144 a73d fe10 2f3d
00000240: b077 50bd 0315 26bb 04c2 a1bd 27c7 823c
00000250: b086 94bc a2da a4bd 47d7 95bd c5d7 35bd
00000260: 4edb 903d 175d 03bd b6c5 603d 73ac 503d
00000270: 7277 e33d f879 c93d dc93 c1bd 90f3 4ebd
00000280: a661 743c 4c1e c33c 2888 3abc 9542 a53c
00000290: 27a1 8abd 7d77 a73c 9125 783d 3e6a f3bc
000002a0: 26b5 e83b 2fc1 d6bc c0f4 90bc adec 7c3d
000002b0: f0e5 9e3d 8c28 9bbd 1094 2a3d 84ac e93c
000002c0: da02 65bd b7a5 9b3d 03aa 303c 51d6 9fbc
000002d0: 8fb7 6dbd e603 98bd 80f8 fbbc b561 1bbd
000002e0: f94d aa3d 5a07 27bd 0c58 e03d 653c 54bd
000002f0: bd83 4e3d 6edb 4d3d b5ae a5bd e2c2 bf3c
00000300: 32c8 323d 47f8 4a3c fe98 5cbc f130 5b3c
00000310: 1e62 8abd 4c6f 8abc af7e 97bd 4d57 5d3d
00000320: be43 173d e971 e0bc b906 e1bd e85b afbb
00000330: 1394 96bd c5b6 883b 857a e43c a2b1 4f3d
00000340: c249 24bd 3811 d03d ebbc 723d 15ad a5bd
00000350: 956a 183c 707e 893d 9099 443d d2e1 58bc
00000360: 8186 1c3d 7d9c a9bd eb6c a9bd 3c86 6c3b
00000370: 3ed7 b4bd a4d4 a4bc fe7a bd3a 1060 86bb
00000380: 8fcc b53c 7a1d 01bc 22af 093d a6cc 3abd
00000390: 201a 94bc 5143 7fbd b97d 7a3d 4cc2 31bd
000003a0: 3d20 9d3d 7636 5fbd 17d6 b6bd 310c 16bc
000003b0: 7eac 41bc be02 cbbd c1fd b7bd 82db f63c
000003c0: 3a97 9f3b 1551 76bd 4921 3b3c 0976 f8bc
000003d0: ca9a 9ebd 12ec 0e3d e4f5 9dbd 1eb3 993d
000003e0: b376 343d eb09 bfbd d61a cd3d 78ca 04bc
000003f0: 08f5 afbc 552b 5cbd 80e8 a13c e001 58bd
0.09137141 -0.047885988 -0.055885352 -0.027598869 0.012536914 0.060154237 0.099717714 0.030362874
0.017669683 0.0354258 0.022193402 0.022525689 -0.0113007985 -0.037298817 -0.014835144 0.0050197253
0.024322733 0.042477258 -0.019284222 -0.06835792 -0.04780166 0.036605153 -0.059720766 0.028652495
0.020420358 0.08919436 -0.055879746 0.007554908 0.089859925 0.012804887 -0.062167026 0.01900357
-0.044564024 0.023250757 0.08734753 0.03214517 0.00525358 -0.08335117 -0.050348226 -0.0584206
0.019096574 -0.010479156 0.057293165 -0.054301873 0.057476982 -0.015155366 -0.03536507 0.01695677
-0.083319135 -0.026747856 -0.027179558 -0.0068500508 0.06580785 0.06839453 -0.06832363 -0.015671859
-0.061510995 0.08607729 0.041404527 0.02796676 -0.036675077 -0.052239094 -0.05106076 0.029537128
0.057525843 -0.08694192 0.03758377 0.052275967 0.026280554 0.09786761 -0.013409568 -0.005103525
0.11001625 0.07610228 0.02344902 -0.0063829063 0.051675614 -6.2255036e-05 0.04854378 -0.0026254617
0.018060034 -0.045702796 -0.024195487 0.053691372 0.017951742 -0.020214088 -0.047401596 -0.04262696
-0.06107494 -0.09254806 -0.08632602 0.0112446 -0.06667745 -0.05922838 0.0723504 -0.05780586
-0.058036394 0.0891509 0.08179016 -0.08184752 0.069315866 -0.0025324656 -0.014670764 0.01371794
0.039884064 -0.04855591 0.08597833 -0.064724356 -0.056603134 -0.0027990364 0.022031449 0.067948975
0.013158659 -0.048114266 -0.05064417 -0.057211507 0.036076296 -0.0137928035 0.035763837 -0.0025795626
0.048172466 0.03408486 0.013786811 0.0685345 0.052539006 0.0022679197 -0.07142651 0.07264261
-0.07224165 -0.061699774 0.005349728 -0.09022208 0.050928134 -0.09372418 0.05963443 0.067287385
0.059893925 0.0007014525 0.01394005 -0.07673895 0.026801843 0.101383425 0.081674345 0.042740814
-0.050895393 -0.0025342114 -0.07898334 0.015964104 -0.01813063 -0.080495134 -0.073164515 -0.044395227
0.07073079 -0.0320712 0.05487605 0.05094571 0.11106767 0.09837717 -0.0945203 -0.050525248
0.014915859 0.023818158 -0.011385001 0.02017335 -0.067690186 0.020442719 0.0605827 -0.029713746
0.0071016727 -0.026215164 -0.01769483 0.06174915 0.07758701 -0.07576093 0.04164511 0.028524645
-0.055910923 0.07599967 0.010782721 -0.019511374 -0.058036383 -0.074226186 -0.030758142 -0.037934978
0.08315653 -0.040778495 0.109542936 -0.05181541 0.050418604 0.050258093 -0.08089963 0.023408357
0.043647952 0.0123882955 -0.013464211 0.013378368 -0.067569956 -0.016898774 -0.0739721 0.054038335
0.03692984 -0.027398067 -0.1098761 -0.0053515323 -0.07352462 0.0041721785 0.027890453 0.050706513
-0.040109403 0.10159534 0.059262197 -0.080896534 0.009302755 0.06713569 0.04799801 -0.0132374335
0.03821421 -0.08281801 -0.082727276 0.0036090752 -0.08830117 -0.020120926 0.001445621 -0.004100807
0.022192268 -0.007880563 0.033614285 -0.045605324 -0.018078864 -0.062320057 0.061155055 -0.043398187
0.076721646 -0.054495297 -0.08927553 -0.00915818 -0.0118209105 -0.099126324 -0.089839466 0.030133966
0.0048703225 -0.06013592 0.01142151 -0.030329721 -0.077443674 0.034893103 -0.077129155 0.07504867
0.044058513 -0.093280636 0.10014884 -0.008104913 -0.021479145 -0.053752262 0.019764185 -0.052736163

net.4.bias f4 [2]
00000000: 43b1 bdbc edcf 6cbd
-0.023155814 -0.05781548
