CartPole-v1_vpg.pth (torch_old, 271517 bytes, 6 tensors)

net.0.weight f4 [256, 4]
00000000: 3de8 9a3e 962c 293e 5cfb 03be ec71 b83e
00000010: 7688 25be 124d 24bc 8c3d 8bbe 7e55 613d
00000020: 559d e9be 304c 193e a4ba 90be 0a80 f43d
00000030: 437b 7bbe 722e b0bc f967 003f 1406 0b3e
00000040: 654f f33e bbdd fbbd 3bfb fbbe 92d0 05bf
00000050: d643 2abc 29c1 49be 8727 713e 9983 f8be
00000060: bc61 adbe f00b cd3e 717c b9bc f55a 8cbe
00000070: 1924 ce3e c1a6 b13e a917 0a3f affb 093f
00000080: 9714 023e 22a7 8ebe a0a5 903d 10b6 efbe
00000090: d6f2 803c 856a 413d d4dd 53be 59f4 96bc
000000a0: a412 6f3e 3b77 8ebe 4d01 abbe 7921 eabd
000000b0: b29f c23e f6f5 95bd c17c 8abe 7dda 003f
000000c0: 7377 fc3e e611 9a3e 9dea 1e3f 5093 e23e
000000d0: 8a71 9e3e 10cd c1be 5258 043e bf93 f3be
000000e0: bff1 acbe b96f 1abe 2d0a 59be 9059 dabe
000000f0: c4cc c53d 5f06 81be 2af3 17bf abce 133e
00000100: 694a c5bc b71e 28be 117b ffbd 0f2d 9ebe
00000110: 08a3 1e3e 3c14 fc3e 2617 da3e b8c0 b73e
00000120: 0ad9 ef3e 1548 9d3d 09ce cbbe ce89 fe3e
00000130: b5f6 333e 14e3 aebe 7e7a 0e3f bc92 603e
00000140: 7b39 88be 985e 69be 4286 4a3e 696b 7fbe
00000150: b109 dbbe 85a6 a73e 1f8a e33e 51b3 c4bd
00000160: 0673 af3e b04e d73e 0469 483e 1179 afbd
00000170: 7cdb 90be a792 633d 3371 39be a478 993e
00000180: 9201 f1be 3b6c ef3e 8ba0 cd3d 3711 08bb
00000190: 4c4b 463e ee18 f3be 4af7 d6be 0908 f6be
000001a0: c88b 94bd 1626 9c3e 1469 0f3f 015b 0e3e
000001b0: f42e 823e c011 cfbe d2ad 933e 9a97 e63d
000001c0: 6635 f13e f54c d23d 8444 dc3d fb39 4abe
000001d0: d3d6 b2be 4ae9 a6be a1d7 7cbe 1157 26be
000001e0: 7599 f3be f193 723e 8419 4ebc 30b0 a6be
000001f0: d7cb 62bc b6bd b7bd d7e6 933d dfc0 933d
00000200: dcbd 873b 050d d53e fcf2 8dbe 0993 813b
00000210: b057 e5bd c429 73be b49c 013f acb9 a73e
00000220: 6492 43be 2081 3a3e 0eba 0c3e bf61 27be
00000230: e0ed 7fbd 6a11 d03e 12a2 3c3e 02b6 b73d
00000240: dd82 87be 3bb6 80bd ba8b 453e eb8b 93be
00000250: 5d5b b73e e763 683e ef61 a53e c5a5 f23e
00000260: 870b 7b3e 3c22 8c3e 7e59 f2be f30e 89bd
00000270: 7e55 8bbe ed2b aabe d217 14be 6c32 8abe
00000280: 3291 e93e a3e9 7e3e 0535 f6be a312 bdbe
00000290: 1296 7cbe b1f0 303e 4979 a3be fc73 f23e
000002a0: a939 31bd f336 3fbc 9152 093f 4868 39bd
000002b0: d472 043e 1b84 bdbe 77cb 05bf 78ea e53d
000002c0: f546 dd3e b417 be3e 93f0 87be e9d9 01bf
000002d0: 060c b8bd 2083 533e 794d 95be deec 6abe
000002e0: a412 a9be 8eb3 c33b 5c6c 02be 5345 fd3e
000002f0: 3ec0 c03e 21de 173d 606e b13e e06b e63e
00000300: 6ed3 8dbe 565d a43e 38cf 8abe 90bd b53e
00000310: 3536 f0bc 1e35 b4be f360 813e 3c62 dcbd
00000320: d31d 773e 42ec c03e ae64 c6be f0e1 d13e
00000330: f539 bdbe db11 c73e a843 edbc 8564 d6be
00000340: 6a70 643e aa0d 8cbe 3dda 24be e010 2b3e
00000350: da44 b2be 4f11 363c 546e ee3d c566 b8be
00000360: e33c afbe 337c 84be 44a8 87be c67d 743e
00000370: 0d13 51be 4271 90be 3b71 b53e 244d 863e
00000380: 055f 3a3e 218d bb3b 905c 04bf 4eb6 c5be
00000390: 8792 4e3e 8600 d03e 41c1 23be dcfd 92be
000003a0: 9e92 93bd 87fc a5be d6bc 193e 0005 0b3f
000003b0: b821 94be 8675 92be 6cf0 e4bd 9203 88bb
000003c0: cc16 ef3e 47df 89be d766 4b3d a12f c5be
000003d0: 957f 3b3c e528 b6be 16cc 863e 7df7 623e
000003e0: 4efb dfbe b636 8abd ca18 61be a551 20be
000003f0: f0ea c73e 01dd ecbd fc23 b83e 656d eb3c
0.3025531 0.16520914 -0.12888855 0.36024415 -0.16165337 -0.010028141 -0.27195394 0.055013172
-0.45627847 0.1497047 -0.28267395 0.11938484 -0.2455874 -0.021506522 0.5015865 0.13576537
0.4752151 -0.12298151 -0.4921511 -0.5227138 -0.01039215 -0.19702591 0.23550235 -0.485379
-0.33863628 0.4004817 -0.022642346 -0.27413145 0.40261915 0.34697536 0.5394235 0.53899664
0.12703167 -0.27861887 0.070628405 -0.4681859 0.015740793 0.047220726 -0.2069009 -0.01842706
0.23346955 -0.2782534 -0.3339943 -0.11432166 0.38012463 -0.07322304 -0.27048305 0.50333387
0.49309883 0.3009178 0.6207674 0.44253016 0.30945998 -0.37851763 0.12924317 -0.4757366
-0.33778188 -0.15081681 -0.21195288 -0.42646456 0.096581966 -0.25200173 -0.59355414 0.14434306
-0.024083333 -0.16417967 -0.12474645 -0.30893752 0.15491879 0.49234188 0.42595786 0.3588922
0.46845275 0.07679764 -0.3980563 0.49714512 0.1757458 -0.34157622 0.5565566 0.21930975
-0.26606354 -0.22789991 0.19777778 -0.24943317 -0.4278083 0.32744232 0.44441316 -0.096045144
0.34267443 0.4205222 0.1957131 -0.085680135 -0.28292453 0.05555978 -0.18109588 0.29974854
-0.4707151 0.4676226 0.10040387 -0.0020762214 0.19364661 -0.47479957 -0.41985542 -0.48053005
-0.07253224 0.30497807 0.5601971 0.13901903 0.25426447 -0.4044323 0.28843552 0.112593845
0.47111052 0.10268585 0.10755256 -0.1974868 -0.34929523 -0.3259986 -0.24691631 -0.1624415
-0.47578016 0.23689248 -0.012579326 -0.32556295 -0.0138425445 -0.08971731 0.072217636 0.072145216
0.004142506 0.41611496 -0.27724445 0.0039542955 -0.11198366 -0.23746401 0.50629735 0.32758844
-0.19098812 0.1821332 0.13742849 -0.16345881 -0.062482715 0.40638286 0.184212 0.08970262
-0.26467028 -0.06284758 0.19291583 -0.28817686 0.35811892 0.2269436 0.3230128 0.47392097
0.24516116 0.2736987 -0.47333902 -0.066923045 -0.27213663 -0.33236638 -0.14462212 -0.26991594
0.45618588 0.24893813 -0.48087326 -0.3692828 -0.24666622 0.17279316 -0.3192847 0.47354114
-0.04326788 -0.011670816 0.5364161 -0.045265466 0.12934428 -0.3701485 -0.5226359 0.11226362
0.43218198 0.3712746 -0.2655073 -0.5072313 -0.08986668 0.20655489 -0.2916067 -0.2294192
-0.33022034 0.0059723323 -0.12736648 0.49466953 0.3764667 0.037077073 0.34654522 0.45004177
-0.2770037 0.3210246 -0.2711122 0.35496187 -0.029322723 -0.35196775 0.2526928 -0.10760924
0.24132471 0.3768025 -0.38748688 0.4099269 -0.3695828 0.3888081 -0.028962925 -0.41873565
0.22308508 -0.27354175 -0.16098876 0.16705656 -0.34818155 0.011112525 0.11642137 -0.36015907
-0.3422614 -0.25876006 -0.26495564 0.23876104 -0.20417424 -0.2821141 0.3543795 0.2623073
0.1820031 0.005723611 -0.5170374 -0.3861565 0.20173083 0.406254 -0.1599169 -0.28709304
-0.072056994 -0.32419226 0.15013441 0.54304504 -0.28931975 -0.28605288 -0.11178669 -0.0041508162
0.4669708 -0.2692816 0.049658623 -0.385129 0.011443992 -0.35578075 0.2632758 0.22164722
-0.43746418 -0.067487165 -0.21982113 -0.15656145 0.3904643 -0.11565591 0.35964954 0.028738687

net.0.bias f4 [256]
00000000: ffb5 a7be b379 2abe 2ffe 7d3e 3205 3b3e
00000010: 2671 dc3e 70d2 51bc e843 a2be 1466 ce3d
00000020: 0fc2 9cbe a039 d5bd 62ff a7be de21 c9bc
00000030: 1d6d ba3e 90fc f13e f08b fa3e 024c 1dbd
00000040: 9b94 c5be 07a5 8a3e da01 dfbe 61a5 2e3e
00000050: bf82 1a3d d51e f7be 5a4e a3be 7f28 e03d
00000060: 7286 a8be ce9a c4be 2f95 e33e 89d2 ac3e
00000070: f922 e3be 52f9 80bd 3aa1 0b3e 93bc bbbe
00000080: 39b5 213e 9a7d f0be 9d5f 62bd ccaa ccbe
00000090: 04a3 593c a129 c3be 68db 5ebe 38d6 b33e
000000a0: 752d 25be 1ec4 76be 87c3 ab3c 12c3 d7bd
000000b0: 73de 94be 119c 9ebe 4b8a 9f3e 034a c03d
000000c0: 1c18 d43e 2647 13be c0eb 78be d8c1 8bbe
000000d0: dd86 17be b6df 673e 054b 6abe f20e fbbe
000000e0: a384 943b 80a9 e6be 73d3 883e 1c99 eebe
000000f0: dd6a a63d f994 883e 9b67 6cbe 8350 833e
00000100: 708c 23be cf75 d43e ef7e 853e 3021 b03e
00000110: 659f cc3e 91f8 a63d 2873 e13e 18f7 75bd
00000120: 52c4 9dbc 591b f0bd 529a d93e 8873 c93e
00000130: 8683 273e 78c5 5e3d 54ad 42be a4cd 02be
00000140: 72db 16be ec57 5e3a 8300 d7bd 8c43 fa3e
00000150: f0c7 47be 5731 ca3d 6c27 d43e e527 e83d
00000160: e79e 253c b57a 973e eb0f f0be 4f9d 9d3e
00000170: d364 993e bd77 383d 5364 fbbd e0a8 ed3d
00000180: e0ef a8be b90d 89be ab89 d1bc 4cb5 273e
00000190: 0a92 b53e 1eae 82be 85c0 ce3e 5dc9 ba3c
000001a0: 2da3 d03e 57a9 a8be d4bb b9bd e604 dc3e
000001b0: 0260 ae3e ca3b c8bd 035f cd3e 7d2a c8be
000001c0: 3a3e bbbe ef05 25be aaf3 28be b9d3 9ebe
000001d0: bb5b af3e 15a2 afbd c851 a73e a403 a83e
000001e0: 0c77 f83e 6be4 473e 3869 e4be 70c3 d83e
000001f0: 9d61 f73e 528e 86be 0869 9f3e 3dca 48be
00000200: 399a f33e 26e7 d7be 6d0d d43e 0eb5 a1ba
00000210: 520d e03e 070a 85be 979e bf3e 0625 e43e
00000220: da83 e23e c64a 5a3e c3b2 2fbe 0c10 a83e
00000230: 04f3 843d ef7a cb3e eec3 383e 6a52 dcbd
00000240: d984 0abc f30b 10be 4258 8dbe 8f15 dd3e
00000250: 98d7 20be 8ebd e93d 5153 eebe cf43 18bc
00000260: 666a e4be 63f7 ddbe cd33 0fbe 8493 2d3e
00000270: 9b3f acbe cfde cf3e f74e 783e cd62 443e
00000280: 463b 473e 7ef3 3ebe 2c83 efbd 5d75 ebbe
00000290: 1db8 c2bc d0e9 813e c841 f53e a576 c33e
000002a0: c725 49be d2ee ba3e 2a1e 49be b096 653e
000002b0: 9fea afbe cbe0 f5bd 557a cdbe 1f6e 613e
000002c0: 4e1c 3a3e e26f d93e cbaf a3bd af34 bcbd
000002d0: 9d0f d93e 3da1 05be 623e a9be 1901 dabe
000002e0: 3852 c43e bd23 873e 0c09 fdbe c273 763e
000002f0: 3dda 943e ae74 ab3d a657 93be aec9 4e3e
00000300: f1e6 773e dbdc ab3e b8b9 b33d 8da2 a63d
00000310: 0002 cb3d f4c1 773d d1ab 9d3e 0fcf c63d
00000320: f5ba cfbe 8483 bbbe e205 c9be b83d 88bd
00000330: 311f 693e cee9 093e 355a f13e f388 69be
00000340: ba6c d8be 2944 47be bcc9 d6be a8cc 7c3e
00000350: a056 67bd e989 d53e c205 cdbd 859f e03e
00000360: d6ab 14ba 1831 663e bcdd 3abd afcf eabe
00000370: 363d 9dbe 45e2 c53e 1790 c9bc 1f95 bebe
00000380: a1d4 c43c ef66 c8be 15f5 c0be 8fce 613d
00000390: e02a 873e 3c50 353e b384 573d 9b43 fc3c
000003a0: 597b cebe 9224 e53e 54d5 28bd 8837 793e
000003b0: 9ebe cf3d 5a59 7fbe 4356 c83e 1f4b debe
000003c0: d460 413d ca3d 463e 98e3 d2be 24d7 d23d
000003d0: 4ca1 c1be 96ee b93e 870e b7be 5c10 dcbe
000003e0: 61da 9ebe 1e4e 5c3e af2e c93e c773 503e
000003f0: 97ae 183e f7c7 02bf 0b2f 7fbe af6d d33e
-0.3275604 -0.16647987 0.24803995 0.182637 0.43055075 -0.01280652 -0.31692433 0.100780636
-0.30616805 -0.10411382 -0.3281203 -0.024552282 0.36411372 0.47263002 0.4893489 -0.038402565
-0.3858994 0.2707903 -0.435561 0.17055275 0.037722345 -0.4826571 -0.31895715 0.10945224
-0.32915074 -0.38399357 0.44449756 0.33754376 -0.4436262 -0.06297554 0.13635722 -0.36667308
0.15791787 -0.46970826 -0.055266965 -0.39974058 0.013283495 -0.38117698 -0.21763384 0.35124373
-0.16130622 -0.2409825 0.020967258 -0.105352536 -0.29075965 -0.30978444 0.31160197 0.093891166
0.41424644 -0.1438261 -0.24308681 -0.2729633 -0.1479754 0.22643933 -0.2288018 -0.4903484
0.004532413 -0.45051193 0.26723823 -0.46601188 0.08125851 0.26676157 -0.23086397 0.25647363
-0.15971541 0.4149613 0.26073405 0.3440032 0.39965358 0.08152879 0.4403317 -0.0600501
-0.019258652 -0.11723966 0.4250055 0.39345956 0.16358766 0.05438754 -0.19011432 -0.12773758
-0.14732149 0.00084817293 -0.104981445 0.4887966 -0.19509864 0.09872692 0.41436327 0.11335734
0.010108686 0.29585806 -0.46887144 0.3078408 0.29959735 0.045036066 -0.12274995 0.11604476
-0.3299551 -0.26768282 -0.02557834 0.16377753 0.3546298 -0.25523466 0.40381256 0.022801096
0.40749493 -0.32941696 -0.090690285 0.42972487 0.34057623 -0.09777029 0.4011155 -0.39094916
-0.36570913 -0.16115545 -0.164992 -0.31020907 0.34249672 -0.085758366 0.32679582 0.32815278
0.48528326 0.19520728 -0.44611526 0.42336607 0.4831666 -0.26280457 0.3113482 -0.19608398
0.475786 -0.4216854 0.41416493 -0.0012337284 0.43760163 -0.25984213 0.37425682 0.44559497
0.4424122 0.21317586 -0.17158036 0.32824743 0.06491664 0.39742228 0.18043491 -0.10757907
-0.008454525 -0.14067058 -0.27606398 0.4318051 -0.15707242 0.11413108 -0.4654794 -0.009293511
-0.44612426 -0.43352804 -0.13984604 0.16950804 -0.33642277 0.40599677 0.24248873 0.19178315
0.19456205 -0.18647572 -0.11694941 -0.4598798 -0.023769433 0.25373697 0.4790175 0.38176456
-0.19643317 0.3651033 -0.19640413 0.22420764 -0.3435869 -0.120057665 -0.40132394 0.22014664
0.1817486 0.42468172 -0.07992514 -0.09189736 0.42394724 -0.13049789 -0.33055407 -0.42578962
0.38343978 0.26394454 -0.49420965 0.24067596 0.29072753 0.08371864 -0.28777808 0.20194122
0.24209191 0.33566937 0.087756574 0.08136473 0.09912491 0.060487702 0.30795148 0.09707462
-0.40572324 -0.36623776 -0.392623 -0.06652397 0.22765805 0.13468096 0.47139135 -0.22806148
-0.42270452 -0.19459595 -0.41950786 0.24687445 -0.056479096 0.4170678 -0.10010864 0.43871704
-0.00056713575 0.22479665 -0.04562162 -0.45861575 -0.30710763 0.38649192 -0.02460484 -0.37223145
0.02402717 -0.39141032 -0.37686983 0.05512863 0.263999 0.17706388 0.052616786 0.030793956
-0.40328482 0.44754463 -0.04121907 0.2433759 0.10143779 -0.24936429 0.39128312 -0.43416688
0.047211483 0.19359508 -0.41189265 0.10294941 -0.37818372 0.3631484 -0.3575327 -0.4298123
-0.31025985 0.21514174 0.3929343 0.20356666 0.1491035 -0.5108637 -0.24920289 0.4129462

net.2.weight f4 [256, 256]
00000000: 42ae 7c3c b0c1 a5bb 8f6f ccbc 2688 6dbd
00000010: eac6 d63c 7d9c 663d d0bd 3f3c 9f3d 8f3c
00000020: 6319 91bc e10a 2b3d 54ed a13c 4f77 89bd
00000030: b60c a5bb 15e3 31bd aaa4 d8bc cb28 47bd
00000040: c16f ccbc 89dd 583c dbff 24ba 0e20 523d
00000050: 1223 493d 70be f9bb 473d 15bc b22c 1bbd
00000060: b597 993c dd61 7a3d b89e 9bbc d25f 94bc
00000070: 9ccf c43c dafe c33c d386 f7bc 3824 683d
00000080: 545c 443d 2815 f63c d092 25bd 7170 7abd
00000090: 73f5 2fbd b905 243d 8e26 19bd 9235 3c3d
000000a0: a0ec d2bc 8062 3c3b b51a 69bc ea00 3fbd
000000b0: f808 8d3b 1895 103d bc73 543d 688c 1a3c
000000c0: 1288 d9bb 06e5 413d 1d2d 87bd edc8 c83c
000000d0: 595e 323c a17f 92bd 72d5 62bd 9c81 073d
000000e0: abb2 34bc f72b 113d ead4 e4bc 706a a43b
000000f0: 4b04 86bd 98ef 5fbd 102c 563d b0b0 3f3d
00000100: 987b 12bc ed8e 68bd d0de 06bd 1739 f93c
00000110: a7e9 c0bc 6785 67bd 4d68 86bb f50b 46bc
00000120: 28aa 2cbd 3c37 21bd e81e a4bc 0f65 fcbc
00000130: 8f77 553d 51bf 763c cc5f bbbc 7080 2bbc
00000140: 9021 973c 32d6 2abd 40b1 ac3b 41e6 4c3d
00000150: b643 5dbd 3efe 8e3c 26a1 b83c c431 9e3b
00000160: b567 febc f553 89bd 7413 073d 9f23 a53c
00000170: 2b15 71bc c75d 423d 6577 a6bc 027c bc3c
00000180: 80f4 38bd 30e4 71bd c08b 85bd 5465 a83c
00000190: 2d2a 1c3d 741a 8e3c 39e3 0cbd a6b9 e0bb
000001a0: ccdd 17bc 00a7 f63a 1eb6 afbc 9135 87bb
000001b0: 0660 2f3d efb1 863c 7a8d 36bd 6262 5e3d
000001c0: 54d2 2cbd 449e 623d 5c13 14bd 9593 30b9
000001d0: 1fab 8cbb a6cf 5ebd d935 88bd 2be5 e7bc
000001e0: 4823 1b3d 288f 47bd 3c0b 1e3d 629d 56bd
000001f0: 6574 3bbc e331 39bd 8514 7abd 0f1d f9bc
00000200: 25a5 49bc 8341 f1bc d4f5 c8bc 345a 7abd
00000210: 5f1f 283d 33b6 acbc 648e 24bc 13d3 4dbd
00000220: 51f8 13bd 740a 553d 11a2 073d 8efe 523d
00000230: e1b0 46bc 0a6a 07bd 09b9 5bbd caa2 41bd
00000240: e509 2dbd 0058 58bc 2af1 9a3c d684 91ba
00000250: 60f4 053c 6c0e f13c 818b 0fbd c4e4 73bd
00000260: ba60 45bd e37f 7bbc 3a49 2ebd 52c6 743c
00000270: 33e3 c4bb bb1f b9bc 2242 223d 5a37 febc
00000280: edd2 8c3c 55c5 efbc 0281 6f3d e041 4c3d
00000290: ce35 5f3d 1d78 82bd 94aa ddbc 0598 913c
000002a0: cb5f 17bd 2c85 893c c5d3 f2bc 4e75 8ebd
000002b0: 587e 55bc 480c 20bd b814 4cbd 6510 a73b
000002c0: 9899 0bbd 3475 bc3c a794 babc c37b 243d
000002d0: 7ee6 d93c 369b 4a3d 96b8 503d d9dc 47bd
000002e0: 1ed6 4ebd 7073 0abd 0fa5 253d 71bf 62bd
000002f0: 630c 263d 98d0 f93c 91eb 84bd af77 1f3d
00000300: 3354 63bd 9cc1 69bc 95aa 8ebc 00a7 05bd
00000310: 526e 593d e83f 83bd 1a3f 2e3c 1d98 ffba
00000320: 9cc9 f9bc d329 363d ef31 03bc c761 55bc
00000330: c8c3 fcbb 603e 5d3c cd18 343d c2cd b7bc
00000340: 0e92 3d3c 007a 343d 05bc 37bd 64d9 7abd
00000350: 2962 8eba 6312 3d3d 3c4a 9a3c 5ba8 4bbd
00000360: dd89 3abd 4f46 7ebd cbb9 c4bc 0ad7 3c3d
00000370: 00a4 ee39 6abb 91bd bece 383c c674 5a3d
00000380: 1bf1 323d 92d0 01bd 43cc 09bc 9f1b b4bc
00000390: 45ef 8abd f1a2 7dbd 9944 c5bb 1d9a 8cbd
000003a0: 90e3 cdbc edc1 3e3d 4788 89bb 6289 1a3d
000003b0: fd5d 69bd 9dcc fd3c 7fb5 78bd 58c0 a0bc
000003c0: f029 37bc 2582 a83c 0e85 4a3d 9672 383d
000003d0: 7a6b 8abd 0817 8fbd dd8a 813c 4dac 7bbd
000003e0: dd54 5d3d c647 2fbd 6001 313d fb78 70bd
000003f0: 7ec4 3b3d f298 083d 6c07 0f3d 0914 033c
0.015422406 -0.0050584897 -0.024955539 -0.05799117 0.026217896 0.056301583 0.01170297 0.017485438
-0.0177123 0.04175842 0.019766487 -0.067122094 -0.0050369157 -0.043429453 -0.026445705 -0.048622888
-0.024955632 0.013236412 -0.0006294229 0.0513001 0.04910571 -0.007621579 -0.009108848 -0.03788442
0.018749097 0.061128486 -0.018996581 -0.018112097 0.024024777 0.023925234 -0.030215656 0.056675166
0.047939613 0.030039385 -0.040423214 -0.06114239 -0.042958688 0.04004452 -0.037390284 0.045949526
-0.025747597 0.0028745234 -0.014227559 -0.04663173 0.0043040477 0.035298437 0.051868185 0.0094328895
-0.0066385353 0.047337554 -0.066004016 0.024509871 0.010886752 -0.071532495 -0.05537934 0.03308259
-0.011028926 0.03544232 -0.027933557 0.005017571 -0.065437876 -0.054671854 0.052288115 0.04679936
-0.0089406 -0.05677693 -0.032927334 0.03042273 -0.023548914 -0.056523707 -0.004101789 -0.012087812
-0.04215446 -0.039359316 -0.020034268 -0.030809907 0.052115973 0.015060262 -0.022872828 -0.010467634
0.018448621 -0.04170818 0.0052701533 0.050024275 -0.054019652 0.017455216 0.022537779 0.00482771
-0.03105531 -0.06705467 0.032977536 0.020158587 -0.0147145195 0.047452714 -0.020320604 0.02300835
-0.04515505 -0.059055507 -0.06520796 0.02055613 0.03812616 0.017346598 -0.034396384 -0.0068580685
-0.009269189 0.001881808 -0.021449145 -0.0041262587 0.042816184 0.016442267 -0.044568516 0.054293044
-0.042192772 0.055326715 -0.036151275 -0.00016839647 -0.00429286 -0.054397248 -0.066508956 -0.028307518
0.037875444 -0.04872051 0.038584933 -0.052396186 -0.011441325 -0.04521359 -0.061054725 -0.030409364
-0.01230744 -0.029450184 -0.024531282 -0.06112118 0.041045543 -0.021082973 -0.010043714 -0.050250124
-0.036125485 0.052011922 0.033113543 0.051512294 -0.012127132 -0.03306011 -0.05364326 -0.04727439
-0.042245764 -0.013204575 0.018913824 -0.001110221 0.008175939 0.029425822 -0.03504515 -0.05954434
-0.04818795 -0.015350315 -0.042550303 0.014939861 -0.0060085296 -0.022598138 0.03961385 -0.031032253
0.017190421 -0.0292689 0.05847264 0.04986751 0.05449467 -0.06370566 -0.027058877 0.017772684
-0.03695659 0.016787134 -0.029641995 -0.06955968 -0.013030611 -0.039074212 -0.049824446 0.00509839
-0.034082025 0.023005106 -0.022775961 0.04015709 0.026599165 0.049464427 0.050957285 -0.0487946
-0.050497167 -0.033801496 0.040440615 -0.055358354 0.040539157 0.030494973 -0.06490243 0.0389325
-0.05550022 -0.0142673515 -0.017415324 -0.032629967 0.053083725 -0.064086735 0.010635162 -0.0019500289
-0.030491643 0.04447348 -0.008007511 -0.0130238 -0.0077137686 0.013503641 0.043968964 -0.02243698
0.011570467 0.04406166 -0.044857044 -0.061242476 -0.0010862994 0.046160113 0.018834226 -0.049721103
-0.045541633 -0.06207877 -0.024014374 0.046103515 0.00045517087 -0.071158245 0.01127976 0.05333402
0.043686967 -0.03169305 -0.008410516 -0.021985827 -0.06783918 -0.06192297 -0.0060201404 -0.06865332
-0.025132924 0.04657166 -0.0041971537 0.037728675 -0.0569744 0.030981356 -0.060719963 -0.019622967
-0.011179432 0.02056987 0.049443297 0.045031153 -0.06758781 -0.06986815 0.015813285 -0.061443616
0.05403601 -0.042793058 0.043214202 -0.058709126 0.045841686 0.033348985 0.034919187 0.008000382

net.2.bias f4 [256]
00000000: c7b2 69bc a1c5 42bd 7d48 db3c 6033 7b3d
00000010: 5dde 92bc a7b1 5cbd 5a99 0a3c 0e79 66bd
00000020: 923b 1f3d 1b1f 2bbd a8c2 2e3b 7c2a 9c3c
00000030: 0368 1a3c a4ec 31bc ea2d 7b3d b350 e13c
00000040: 2503 aabc 724d 3f3d a050 41bc 57ea bd3c
00000050: 93f7 a7bd 4a34 323d 9130 6abc 8067 883c
00000060: d0a1 44bd e5ec e03c 0410 e13c ffc5 17bd
00000070: d1ac b8bc a064 f1bc 8ac4 8bbd 5006 6b3d
00000080: 9bfa 833d 5e6f 1fbd 6a62 85bd d3ef 34bd
00000090: c050 15bd b331 c13c 9271 463d 36c1 47bd
000000a0: 6cde 663d 40b8 f03b 3933 4dbd e790 293d
000000b0: 91e1 a1bc e487 983c 266a 543c 0ae2 303d
000000c0: 2077 9e3b 8517 843c 7a47 4e3d 0eca 23bb
000000d0: c286 1abd 7a7b 8b3d 0280 bd3c aabb 393d
000000e0: cbdd a33c b1ac 583d 8068 913c b1dc 5c3d
000000f0: 4cbc 9ebc dc50 1a3c e7de 88bc 042b 1d3d
00000100: 2396 753c e710 28bd 38f4 523d f4c1 3e3d
00000110: 67df a0bc 222f 9d3b d2bd 6d3c baef a9bb
00000120: 2a25 703d e9d1 87bc 56d3 d53c 40ec ab3c
00000130: babf c7bb a804 a63c 71fd 1d3d cec6 243d
00000140: ddc4 203d cd98 31bd 6bbe 223b d1f4 503d
00000150: 236d 40bd a3be 67bd 4fc2 cc3c e9f2 a73b
00000160: 2692 c9bb 6434 6f3d e452 59bb 4f92 813d
00000170: 98e1 813d 915a 97ba 6f41 4bbd fab5 5a3d
00000180: 246a 26bd 6ab7 1d3c fc6d 3cbb 7d35 62bd
00000190: a3b4 bbbc 6628 79bc 458c 363d 4438 31bd
000001a0: 078a 893b 8dcf 963d f37a 553d 567f 073b
000001b0: a4d4 473b 16ab 713d d12b b93b b5e3 2dbd
000001c0: 60d6 2abd ec4d c13c 036a 733d 3eeb 36bc
000001d0: d03f 1d3d 4a72 89bc 23bf 24bb 5c6c 2bbd
000001e0: b808 74bc fe86 4cbd b62c 823c acd2 043d
000001f0: 3278 7dbc d4d6 00bb 7baa 013c 11dc 1dbd
00000200: 61cd 453d b450 8ebc 4aca 303c c004 033d
00000210: 8491 14bd 58f7 db3c 296a 5e3d df7c 26bc
00000220: 9cec 6fbd 80ec e6bc dee2 fbba a2db d7bc
00000230: bf44 b63c cfab 453d 409f 49bd 4233 893d
00000240: fbe2 b3bc 580e bebc 0ab0 9fbc f412 ce3c
00000250: de2e e6bb 088d 733c e9cc 4fbd 9726 b7bb
00000260: 544c 98bc 5d88 3c3d 3eed 133d fa51 933c
00000270: 5cfd 103d d27b c33c 72ff 48bd 478b 0bbb
00000280: 6414 363d c6ff e4bc 0e5c e5bc 2203 8d3d
00000290: edb4 073d bf19 593c c5a1 5d3c 13b9 80bd
000002a0: 3ef5 4b3d 47b3 02bd cd29 83bd cb4d 0fbd
000002b0: dc81 e8bc 6040 683b bc74 ea3c 6ea9 27bd
000002c0: 1fae 713c 9d30 3e3d d50b 133d c58f 883d
000002d0: c634 2bbd 6580 273d e63e 843d e684 90bd
000002e0: 3100 173b 814d 123c 33ce 3d3d 43dc 2f3b
000002f0: ecc0 e8bc c696 1d3b 2276 05bd df2f d2bc
00000300: e0e3 a63b 2dba bdbc ad17 113d 60d2 bfbc
00000310: b059 fc3c 9ff6 1b3d 8ad2 41bd f41f 203d
00000320: db14 5abd 0046 39bd 9bdf 6f3c 6327 1b3c
00000330: 0564 7d3c 17da bf3c 8358 613b 5a4a 2cbd
00000340: 2e5d 64bd 3d34 d03c 17e4 2a3d fdc9 e33b
00000350: cdda 05bd 10a3 433d fb08 d1bc 5744 29bd
00000360: 8249 dbbc 114c babc ee9f 97bc 3dc3 793c
00000370: 9d0f 2c3b 194d 05bd f435 1dbd 5ea7 9e3c
00000380: 5fe0 b5bc 446b 4abc a85d 3f3c afe7 c5bc
00000390: a630 fbbc f63b 583c 54ce 1f3d a361 5bbc
000003a0: 49d3 f9bc cd6f d53c 382c 97bc 1f72 773d
000003b0: 7037 d93c 0a3d 7fbd fe3f 0a3d 7684 943c
000003c0: 2f01 343c e48a f83a 40f4 41bb 4381 35bd
000003d0: 8ceb efbc 9c7b 5b3d 9e45 203d 7d8d 3f3c
000003e0: fb38 903d 4ca1 1a3d 6a0d 1c3d 68bd 2e3d
000003f0: 2f47 96bc 7c65 55bd 39db 843c a286 96bd
-0.014263815 -0.047551755 0.026767964 0.061328292 -0.017928297 -0.05388036 0.008459413 -0.05626779
0.03887517 -0.04177771 0.0026666317 0.019063227 0.009424212 -0.010859642 0.061323084 0.0275043
-0.020753453 0.046704717 -0.011799008 0.023183031 -0.08201518 0.043506898 -0.014293806 0.016650915
-0.04800588 0.02745671 0.027473457 -0.03705406 -0.022543343 -0.029466927 -0.06824596 0.057379067
0.064442836 -0.038924567 -0.065129116 -0.044174027 -0.036453962 0.023583269 0.048448153 -0.048768245
0.05636446 0.007346183 -0.050097678 0.041397955 -0.019760879 0.018619485 0.012964761 0.043184318
0.004835978 0.016124496 0.050361134 -0.002499226 -0.03772617 0.06810661 0.023132328 0.045344986
0.02000322 0.052899066 0.017750025 0.053921405 -0.019376896 0.009418692 -0.01670785 0.0383711
0.014989409 -0.041031744 0.051502436 0.046571687 -0.019637777 0.0047968784 0.014510589 -0.0051860483
0.058629192 -0.016579585 0.02610175 0.020986676 -0.0060958536 0.020265892 0.03857178 0.040228657
0.039250243 -0.043358613 0.0024832736 0.051014725 -0.04697908 -0.05657829 0.024994997 0.0051253927
-0.0061514555 0.058399573 -0.003316098 0.06326734 0.06341857 -0.0011547377 -0.04962295 0.053396203
-0.040628567 0.009626249 -0.002875208 -0.05522679 -0.022913283 -0.015207386 0.044567365 -0.04326655
0.0041973623 0.07363806 0.052119207 0.0020675263 0.0030491734 0.05900105 0.0056509753 -0.042453486
-0.04170835 0.023596726 0.059427273 -0.011164485 0.038390934 -0.01677813 -0.002513834 -0.041851386
-0.014894657 -0.049933426 0.01589046 0.032427475 -0.015470551 -0.0019659298 0.007914181 -0.03853995
0.048291568 -0.017372467 0.010790417 0.03198695 -0.036271587 0.026851341 0.05430046 -0.0101616075
-0.058575258 -0.028188944 -0.0019217392 -0.026349846 0.022249578 0.048259553 -0.04922414 0.0669923
-0.021958819 -0.023200199 -0.019493122 0.025155522 -0.00702463 0.014865167 -0.050732527 -0.005589317
-0.018591084 0.046028484 0.036114924 0.017983425 0.035397872 0.023862753 -0.049071737 -0.0021292733
0.04445304 -0.027953994 -0.027997997 0.06885363 0.03313153 0.013250767 0.013527338 -0.062853
0.049794428 -0.031909253 -0.06404457 -0.0349863 -0.028382234 0.003543876 0.028620116 -0.040933065
0.014750986 0.04643308 0.035899956 0.06668047 -0.041798376 0.04089393 0.064573094 -0.07056598
0.0023040886 0.008929611 0.046339225 0.0026834167 -0.028412305 0.0024046167 -0.032583363 -0.025657592
0.005093083 -0.023160065 0.03542297 -0.023415744 0.030804485 0.038076993 -0.047319926 0.039092973
-0.053242546 -0.045232773 0.014640714 0.00946984 0.015465741 0.023419423 0.0034385032 -0.042063095
-0.055752926 0.025415534 0.04172143 0.006951569 -0.032679368 0.04776293 -0.025516978 -0.04132494
-0.02676845 -0.02274135 -0.018508878 0.015244302 0.0026254423 -0.03254423 -0.03838153 0.019366916
-0.022201715 -0.012354676 0.011680044 -0.024158327 -0.030662846 0.01319789 0.03901513 -0.013389978
-0.030496256 0.026054287 -0.018453702 0.06041157 0.026515692 -0.06231407 0.033752434 0.018129569
0.01098661 0.0018962291 -0.0029595047 -0.044312727 -0.029287122 0.05358468 0.039128892 0.011691448
0.07042118 0.03775148 0.03809873 0.0426611 -0.01834449 -0.052098736 0.016217815 -0.07349898

net.4.weight f4 [2, 256]
00000000: 93b7 583d d261 84bd 0a36 733d 1b34 cb3d
00000010: d343 2fbd 6796 cdbc 3d45 d4bc 6649 1c3d
00000020: dc14 3b3c 826d 6f3d 627d 89bc 733e a73d
00000030: 8e01 1b3c 42e5 80bd 5263 a83b d460 78bb
00000040: 2c5c b1bc 195f 4e3d 453a 10bd ab14 fbbc
00000050: 529a 03bc 25a2 703d 3e8d 45bd 1a3e b33c
00000060: 785f d93c 9134 05bd 30b4 383d 91c2 863c
00000070: 6d2f 90bd 34b9 0b3d 9659 b4bb 14ed 70bd
00000080: 1a30 99bd 4d60 2a3d 6a51 56bd 4722 4abd
00000090: e305 5a3c f1bd 583c 1dec ce3c dca3 4ebd
000000a0: 4094 6dbd 0523 06bd 0afa 013d 824c 2d3c
000000b0: 977b d73b d6ec ab3c 5871 d73c df68 b13d
000000c0: 17ca 7bbd 9c14 a4bc e18a aabd 2015 5c3d
000000d0: 8488 a4bd 2822 82bd b449 2b3d c4f4 ecbc
000000e0: 42e7 dabc a2cf ba3d 1bea f13a a231 91bd
000000f0: 14e1 8e3d 4e2d dbbd d631 a83c 1a62 603d
00000100: 4a00 833b 3045 573d 1556 96bc 2deb 0abd
00000110: b306 56bd 003c 6abd 74be 9fbd acd8 abbc
00000120: c0ed 7fbd 782f 97bd 1cd9 343c cf5a 803c
00000130: fd71 51bd 6884 cf3b 113b 25bd 4457 c1bc
00000140: 224d 5abd 57aa 19bd 3664 29bc 1057 9b3d
00000150: 8609 e2bc af4e 09bd 43e9 533d b48e 0bbd
00000160: 01ff 2ebd 0675 77bd 90c8 a6bc efa1 803d
00000170: d553 493d c700 3bbd 32e5 41bd a920 56bd
00000180: f35b 963c 77c1 8ebd 7aa4 3bbd e280 76bc
00000190: 505c ec3c 591f 0fbd db16 5e3d 10c7 e4bc
000001a0: 6159 7bbb 491e 91bd 58c1 eabc ceee 9dbd
000001b0: a584 dabd d0d5 813d 86f6 243d 4840 39bd
000001c0: 56e6 4abb 90d1 ccbd abfa 8c3d b52f 413d
000001d0: 5dc4 163d b9ef 6abd c866 f63c 209f 833d
000001e0: cad4 523d c6dd b03b 1a86 d63b 89ef babd
000001f0: 5190 b93d d70a 463d a157 a93c a2f1 56bc
00000200: e7f0 993c a5da c93d 5bcc 88bc 0bfe 973c
00000210: 0ae9 70bd c06b 7ebd 71b0 513d c155 99bd
00000220: ca15 773d ca9b 153d 927a 16bb 28d4 d13b
00000230: 5d79 883d 67e1 bcbc 432e 853b 1d59 0b3d
00000240: f4bd 853c fb77 123d 6074 c9bd 160a 723d
00000250: 5e03 9dbb 0a60 5b3d 0133 3f3c eb7f 30bc
00000260: b980 a5bd ecc6 bfbb 4630 31bd 589b aa3d
00000270: c912 83bd f52f cabc fa5d 5abd 0c0e 6abd
00000280: 86ef aabc 7a4b a1ba 8e4a a6bd 4e76 0b3d
00000290: b7ad ad3c 8073 4abd 09ba a8bc bcbe 443d
000002a0: ffd6 9fbc a2f4 273d 25b0 083c 2c37 163d
000002b0: ba38 c3bb 5909 8e3d 8986 98bd 11ae e2bb
000002c0: a5bc 3c3d 4e44 103d 9c20 b83c f200 4dbd
000002d0: 84f7 7cbd e74b 28bd 6219 be3d 412c 3cbd
000002e0: e067 0f3c 063b 3fbd 6027 c3bd b095 d73c
000002f0: 486d cd3c 3e2f aabd 3dfa cf3d e08e 27bd
00000300: b0b9 763d ceeb ad3b d858 0f3d 10e9 cebc
00000310: 5e3d abbd ae48 89bd c3ee 59bd f644 4cbd
00000320: 9065 c9bd a95c 643d 44bf 96bd 96c6 8bbc
00000330: 3d6e 89bb 7e0e 44bd de5e 0a3c 2ef4 60bd
00000340: a960 4e3d c5af 3f3d e080 b4bd cf26 c0bb
00000350: b8ca 15bc 1d04 35bd a545 793d af6b 0b3d
00000360: 4615 4b3d 5bd9 a53d 0843 3c3b 9620 7dbb
00000370: 7835 8c3c 516d 63bd d18f 1dbd e616 9e3d
00000380: aeea be3d f9b0 31bd 3ec4 503d 4271 083d
00000390: c997 a8bd b281 a1bc 1071 4d3b 2091 26bd
000003a0: bfb4 8a3d cbd8 923c f2f5 79bc 66ed 6abd
000003b0: fc18 aebc fa62 16bd b5b7 be3d 01e3 22bd
000003c0: 00ec 51bd 8b92 9dbd 4020 50bb 06bb 393d
000003d0: a7e1 f9bb 6275 38bd 6861 993d 810d a0bd
000003e0: 212a 8dbd 1f45 8c3b c464 9abd 5262 a7bc
000003f0: dc83 29bd 0c29 48bb 3b09 8abd 1a3e c5bc
0.052909445 -0.0646397 0.059377708 0.09922048 -0.04278929 -0.025096131 -0.025911922 0.038155936
0.0114185475 0.058454044 -0.01678342 0.08166208 0.00946082 -0.062937275 0.005138793 -0.003789951
-0.021650396 0.05038366 -0.03521182 -0.030649504 -0.008032398 0.058748383 -0.048230402 0.021880198
0.02653478 -0.032520834 0.045093715 0.016450198 -0.07040296 0.03411217 -0.0055038435 -0.058819845
-0.07479878 0.041595746 -0.052323736 -0.049349096 0.013307068 0.013228879 0.025259072 -0.050449237
-0.05800271 -0.03274824 0.031732596 0.010577323 0.0065760124 0.020986956 0.026299164 0.08662581
-0.061472025 -0.020029359 -0.0832727 0.053731084 -0.08033851 -0.06354171 0.041818336 -0.028925307
-0.0267216 0.09121634 0.001845661 -0.07089545 0.06976524 -0.107020006 0.020531576 0.054781057
0.003997837 0.052556217 -0.018351594 -0.033915687 -0.052252483 -0.057186127 -0.07799998 -0.02097734
-0.062482595 -0.07382101 0.011038091 0.0156683 -0.0511341 0.0063329227 -0.040339533 -0.023601182
-0.053296216 -0.037515964 -0.010338834 0.07584965 -0.027592432 -0.033522304 0.051736128 -0.03407164
-0.04272366 -0.060414337 -0.020359308 0.062808864 0.049152214 -0.04565504 -0.04733772 -0.05227724
0.018354392 -0.06970494 -0.045811154 -0.0150453765 0.028852612 -0.034942005 0.054221015 -0.027926952
-0.0038352835 -0.070858546 -0.028656647 -0.07711564 -0.10669831 0.063396096 0.040274166 -0.04522732
-0.0030960045 -0.100009084 0.068837486 0.047164638 0.03680836 -0.057357524 0.030078307 0.06426835
0.051472463 0.005397531 0.006546748 -0.09127719 0.09060729 0.04835018 0.020671668 -0.013119133
0.018791629 0.09856156 -0.016699007 0.018553754 -0.058815993 -0.062114477 0.05119366 -0.074870594
0.060323514 0.036525525 -0.0022961241 0.006403465 0.06663773 -0.023056699 0.0040643527 0.034020532
0.016325928 0.035758954 -0.0983665 0.05909165 -0.004791661 0.053558387 0.011669875 -0.0107726855
-0.080811925 -0.0058525708 -0.043258928 0.08330411 -0.06400067 -0.02468107 -0.05331228 -0.057142302
-0.020866167 -0.0012305819 -0.08119689 0.03404837 0.021200998 -0.049426556 -0.020596521 0.04803346
-0.019511698 0.041004784 0.008342777 0.03667371 -0.00595769 0.06935377 -0.074475355 -0.006917723
0.046078343 0.03522139 0.022476487 -0.05004973 -0.061759487 -0.04108801 0.09282185 -0.04594064
0.008752793 -0.04668715 -0.095289946 0.026316494 0.025076523 -0.08309792 0.10155151 -0.04090774
0.06023568 0.005307651 0.034996837 -0.025257617 -0.08361314 -0.06703316 -0.053206217 -0.049870454
-0.09833825 0.05575243 -0.073607 -0.017062467 -0.0041940496 -0.047865383 0.00844547 -0.054920368
0.05038515 0.046798486 -0.088136435 -0.0058640013 -0.00914257 -0.044193376 0.060857434 0.034038242
0.049580835 0.08098098 0.0028726477 -0.003862416 0.01711534 -0.055524174 -0.038467232 0.07719211
0.09322105 -0.043381665 0.0509684 0.033311136 -0.08232076 -0.019715164 0.0031347908 -0.040665746
0.06772756 0.01792564 -0.015256392 -0.057355307 -0.021252148 -0.036715485 0.09312383 -0.03976727
-0.051250458 -0.076939665 -0.0031757504 0.045344375 -0.007625777 -0.04503382 0.07489282 -0.07815076
-0.06892801 0.004280701 -0.07538751 -0.020432625 -0.041385517 -0.0030542044 -0.06740042 -0.024077464

net.4.bias f4 [2]
00000000: b11d 4f3d 4b43 473d
0.050565425 0.04864816
