LunarLander-v2_vpg.pth (torch_old, 277669 bytes, 6 tensors)

net.0.weight f4 [256, 8]
000000 54 28 34 3e da 42 d5 bd fa 61 97 bd 00 81 30 3e
       0.17593509 -0.104131415 -0.073917344 0.1723671
000010 01 8e 7e 3e 77 a6 52 be 35 2d 95 3e ef 6e 3c 3e
       0.24858858 -0.20571314 0.29136053 0.18401693
000020 5c 14 1f 3c 9d 56 86 bd 83 bf 9b 3d 28 9a 56 be
       0.009709444 -0.06559489 0.07604887 -0.20957243
000030 5f f1 69 be 64 1d a8 3d b3 55 83 3e 63 ee 1f be
       -0.22845982 0.08208731 0.2565132 -0.15618281
000040 bb 66 e9 bc fb c9 66 be e2 e0 79 3c 77 d8 37 bd
       -0.028491369 -0.22537987 0.01525137 -0.04488417
000050 42 30 93 be 58 b4 53 be bb 19 5f 3e 20 dd a0 3e
       -0.28747755 -0.20674264 0.21787159 0.31418705
000060 2b 79 7e be 3a 7c 97 3e fc 0f b0 be 90 c2 fe 3c
       -0.2485091 0.29586965 -0.34387195 0.031098634
000070 4b 03 ca 3d b0 de 53 3e ed 46 1b 3e dc 5f d9 bd
       0.09863909 0.20690417 0.15163775 -0.10613987
000080 c8 c3 4f 3d 8b ad a5 be a2 77 83 be e6 2a 1d 3e
       0.05072382 -0.32358965 -0.2567721 0.15348396
000090 42 52 bd 3d d5 ff a9 be 31 66 7f be 34 b1 69 3e
       0.09244205 -0.33202997 -0.24941327 0.22821504
0000a0 fd ca ab 3d 59 9e 1a 3e ee c2 49 3e ee 92 8a 3c
       0.08388326 0.15099467 0.19703266 0.016915765
0000b0 60 c8 da bd 84 6f 50 bd 40 31 a2 3e 52 43 13 be
       -0.1068275 -0.0508876 0.316782 -0.1438115
0000c0 3b e6 01 3e e5 ed ba bd ad 81 c1 bd 68 3b b1 be
       0.12685482 -0.09127406 -0.09448562 -0.34615636
0000d0 e5 56 6a 3e cb f1 1d 3d d1 43 40 3e b6 23 ab be
       0.2288471 0.03856067 0.1877587 -0.33425683
0000e0 14 f9 a9 bb 3a 9f 74 be 55 01 b9 be d0 74 77 be
       -0.005187163 -0.23888865 -0.3613383 -0.24165654
0000f0 7a 3f 72 3e 2f be e8 3d d0 40 fb bd 0d 4f 88 3e
       0.23657027 0.113644 -0.122682214 0.2662281
000100 0f b1 1c bd ac 79 3f 3e ea 6d 56 bd ac de 4b be
       -0.038254794 0.18698758 -0.052350916 -0.19909161
000110 84 48 02 3d 21 59 b6 3e 18 7b ca 3d 0a 23 93 be
       0.031807438 0.35614875 0.098867595 -0.2873767
000120 28 df 6f 3e 1e c1 8e be a9 7f 88 3d b4 3d 69 be
       0.23424971 -0.27881712 0.06664974 -0.22777444
000130 65 91 5e 3e 37 57 5d 3e 12 df 45 bd cc 02 fe bc
       0.21735151 0.21615301 -0.04830844 -0.031007193
000140 d2 ae df 3d 38 26 e9 3d e7 e1 88 be 9c 06 35 be
       0.10922016 0.11384243 -0.2673485 -0.17678303
000150 19 2f 78 3e fe ae 49 3d d4 34 97 be 21 ce 63 be
       0.24236716 0.04923915 -0.29532492 -0.222466
000160 02 3a 57 3d bf 59 44 be 08 4b a2 bd b5 e2 2e be
       0.052545555 -0.1917486 -0.07924467 -0.1707867
000170 e3 58 81 bd 3e 63 b1 3e 10 26 bf 3e fe 55 5a 3d
       -0.06315782 0.34646028 0.37333727 0.053304665
000180 8d 53 89 3e d8 4b 0a bd 1a a8 6b 3d fd fd 3a be
       0.26821557 -0.033763736 0.05753336 -0.18260951
000190 51 39 12 be 5d 86 ca 3d 80 39 bb be 6b 75 4c 3e
       -0.14279677 0.09888909 -0.36567307 0.19966666
0001a0 02 f4 4d 3e 8c 30 e4 3d e4 24 08 3e f2 e5 80 be
       0.20112613 0.11142072 0.13295323 -0.25175434
0001b0 88 c6 92 3e e1 f5 b9 be 35 f7 b0 3e 7c b2 84 3c
       0.28667092 -0.36320403 0.34563604 0.01619839
0001c0 50 df 83 be 4e 8d 1b 3e 4a 11 4b be 83 ff 22 be
       -0.2575631 0.15190622 -0.19830814 -0.15917782
0001d0 8f 04 a1 3e fb 39 c8 3e 46 2d 08 be ea fb 01 3e
       0.3144879 0.39106736 -0.1329852 0.12693754
0001e0 e4 9c 8e 3e af 9a c7 3e 24 46 b1 3e 91 1c 5a 3e
       0.27854073 0.38985202 0.34623826 0.2129996
0001f0 b6 9a 84 be d0 32 16 be 8c 08 80 3e 96 2e 5f 3e
       -0.25899285 -0.14667821 0.2500652 0.21795115
000200 29 e5 a2 3e 73 87 53 be e7 9d a3 be 39 d0 33 3e
       0.3181546 -0.20657139 -0.31956407 0.175599
000210 59 3a 39 3e eb e0 de bd e9 5d 6e be b8 95 b7 3d
       0.18088664 -0.108827434 -0.23278011 0.089641035
000220 9f c4 13 be 6d 31 f4 3d 45 2c 5d 3d 80 88 47 be
       -0.14430474 0.1192349 0.053997297 -0.19485664
000230 55 cc 27 be 00 67 90 be 89 3e b6 be 3e 50 83 3e
       -0.1638654 -0.28203583 -0.35594586 0.25647157
000240 0b e0 70 3e 53 09 4e bb d7 54 90 be a9 f3 ce be
       0.23522966 -0.0031438663 -0.28189728 -0.40420273
000250 b3 78 c6 be df 94 8c bd 7e 65 49 3e ac 15 77 bd
       -0.3876396 -0.068643324 0.19667622 -0.060323402
000260 fc 67 bd bd 55 1f ba be 36 c7 92 3e 15 46 87 3e
       -0.09248349 -0.3635203 0.2866761 0.26420656
000270 37 5d 6b 3e f8 79 50 be b4 21 97 3e 56 89 b9 3e
       0.22984777 -0.20359027 0.295179 0.36237592
000280 70 93 1a be 66 c2 44 bd 20 57 b6 bb 61 57 86 3e
       -0.15095305 -0.048036955 -0.0055645853 0.2623854
000290 93 35 92 be b6 68 c5 3d 60 d2 a6 be 71 47 a4 be
       -0.285565 0.09639113 -0.32582378 -0.32085755
0002a0 29 f8 76 be 2a 7e 1b bc 0d 83 f3 3d 80 67 a9 be
       -0.24118103 -0.009490529 0.1189023 -0.33086777
0002b0 2e 57 a8 be 43 a7 87 3e 2a 42 cd 3c 28 e8 a0 be
       -0.32879013 0.26494798 0.025055964 -0.3142712
0002c0 57 1d 7b be 0d 97 a6 bc c9 c3 a6 be 3e 57 95 be
       -0.24522911 -0.020335699 -0.32571247 -0.29168123
0002d0 fd 08 ef 3d b2 76 96 3e a2 01 36 3e fc e6 8a 3e
       0.11671636 0.29387432 0.1777406 0.27129352
0002e0 9b 04 37 be dd 60 19 be bf 58 90 be 4e 44 35 be
       -0.1787285 -0.14978357 -0.28192708 -0.17701837
0002f0 aa 79 c7 3e 16 d6 c6 3e 4f 29 6e 3e c6 e8 61 be
       0.3896001 0.3883521 0.23257945 -0.22061452
000300 40 22 93 3e b8 37 49 be 3f c5 f8 bd a6 09 e2 be
       0.28737068 -0.19650161 -0.12146997 -0.44147986
000310 8c d8 e0 bd 69 02 c1 3d c3 56 96 3c c6 15 95 be
       -0.10978803 0.09424288 0.018351918 -0.29118174
000320 4a ff d1 bd 38 bb 55 3d d4 e8 ac be 49 e4 49 3e
       -0.10253771 0.0521805 -0.33771384 0.1971599
000330 5c aa 91 3e 3b de 77 3e ad 78 1b 3e 47 06 b8 3d
       0.28450286 0.24205868 0.15182753 0.08985572
000340 58 4b 9a 3e f5 9f ae 3d b8 14 ba 3e 37 04 aa 3e
       0.30135608 0.08526603 0.36343932 0.3320634
000350 b7 68 8d 3c 27 c6 1b bc 38 05 ec bd a9 0a a5 3e
       0.017261846 -0.009507692 -0.11524433 0.32234696
000360 be b8 ae 3e 82 8d 79 be c9 f6 7d 3e 3c 4f ab bd
       0.34125322 -0.24370387 0.24801172 -0.08364722
000370 5d bf 93 bc 71 a5 05 be b6 88 d2 3d df 8a 08 3e
       -0.018035585 -0.13051392 0.10279982 0.13334225
000380 8e f0 89 be 45 5b 8b 3e 67 3a 99 3e cb c2 08 3e
       -0.2694134 0.2721807 0.2992737 0.13355558
000390 db 04 2e 3e a3 28 a0 be 50 3c 66 3e 6a eb 92 bc
       0.1699404 -0.31281003 0.22483945 -0.01793452
0003a0 1e c0 94 3e d9 ae 7f be 3b c7 72 be 24 db 69 bd
       0.29052824 -0.24969043 -0.23708813 -0.057093754
0003b0 19 1e 0e bd a7 e0 3e be c9 17 7a 3e 51 71 8b be
       -0.034696672 -0.18640386 0.24423136 -0.2723489
0003c0 88 81 2b be fd 18 c7 ba dc 4c cb bd 93 e9 33 be
       -0.16748631 -0.0015189942 -0.09926769 -0.1756957
0003d0 2e b4 a0 be 3e b6 ac 3e 40 3d 3f 3e c6 be 64 3e
       -0.31387466 0.3373279 0.18675709 0.223384
0003e0 a0 a7 8e 3e ee cf 48 bd 2c be b8 3c f7 13 af be
       0.27862263 -0.049026422 0.022551619 -0.3419492
0003f0 6e d7 01 3e 56 b4 8f 3e 84 31 96 3e 85 04 8a be
       0.12679836 0.28067273 0.29334652 -0.26956573

net.0.bias f4 [256]
000000 14 b1 eb bd 82 b4 67 be 70 4b 74 bd 6b ab 83 3e
       -0.11508384 -0.22627452 -0.059642255 0.2571672
000010 79 a3 40 be 49 58 e0 3d 3a ba 2b 3e 01 14 54 3e
       -0.1881236 0.10954339 0.16770259 0.20710756
000020 58 85 53 3d c4 37 43 3e b5 12 98 bd 82 7b 33 be
       0.05164084 0.19064242 -0.07425443 -0.17527583
000030 78 de 88 be bb 97 9e 3e 5b 1e be 3b 71 d7 a9 3b
       -0.2673223 0.30975136 0.0058019585 0.0051831533
000040 3a a3 0a be c8 ad 56 3e 50 b3 83 3d 26 83 76 be
       -0.13538828 0.2096473 0.064306855 -0.24073467
000050 17 90 80 3e f4 ce 8d 3e 8e f6 b6 bb cb 81 89 3e
       0.25109932 0.27696955 -0.005583591 0.26856837
000060 36 05 ac 3e 61 7e a1 3d 8b 6a 27 be 12 12 59 3e
       0.33597726 0.07885433 -0.16349237 0.211983
000070 2c 35 a4 3e 31 92 e8 bd 6f d4 4e 3e 8b c5 36 be
       0.32071817 -0.11356009 0.20198224 -0.17848794
000080 11 ce 92 bb 56 5f 45 bc 34 5b b3 3d b5 85 1d be
       -0.0044801314 -0.012046656 0.0875763 -0.15383036
000090 00 71 27 3e b2 0d 8e 3d 17 31 9e bc 65 86 14 bc
       0.163517 0.06936206 -0.019310517 -0.009065245
0000a0 fc 46 00 bd e6 b7 91 be 30 24 b8 bd e1 e6 d4 3c
       -0.031317696 -0.28460616 -0.08991277 0.025988998
0000b0 70 33 95 3e 66 56 7f be 8c 7c 9c 3e 55 d8 04 3d
       0.29140806 -0.24935302 0.30563772 0.032432873
0000c0 8d 5f 97 be ff a9 50 be 15 3c ac be b7 3a 8b be
       -0.29565087 -0.20377348 -0.3363959 -0.27193233
0000d0 f3 cc ef 3d ce 76 8d 3e 31 af 45 be ee e6 0c be
       0.11709013 0.27629703 -0.19305111 -0.13759968
0000e0 8e 53 a4 3d 85 b9 a0 3d 49 98 54 3b c3 75 6c be
       0.08023749 0.07847885 0.0032439402 -0.23091798
0000f0 5f 00 bd be 11 9e 99 bd 62 e9 34 be ba 4d 86 3c
       -0.36914346 -0.07500852 -0.17667153 0.016394485
000100 0a 9b d3 3d 63 c9 8e bd 73 38 8f 3e 27 d5 3e 3e
       0.10332306 -0.06972005 0.27972755 0.18635999
000110 28 ea 1a be 8f 7c 46 3e 8e 27 e9 3d 53 ff 82 3e
       -0.15128386 0.19383453 0.113844976 0.25585422
000120 94 33 b1 be 38 c6 45 bd fe af 8f 3d e4 1b 6d be
       -0.34609663 -0.04828474 0.0701599 -0.2315517
000130 d3 1a 81 be 55 8e 98 be d8 f1 6f 3d ed 9c b7 be
       -0.25215778 -0.2979609 0.05858025 -0.35861912
000140 3a 83 3c bd 45 0d 65 be a0 16 86 bc 1b 48 2c 3e
       -0.046023585 -0.22368343 -0.01636821 0.16824381
000150 67 e2 90 3e 2d 5f 86 be 9b 82 95 3e 68 6c 6e be
       0.2829773 -0.26244488 0.29201207 -0.23283541
000160 de 7a c1 3d 80 e8 58 bd 78 20 d7 3d eb 25 44 be
       0.09447263 -0.052956104 0.1050424 -0.1915509
000170 df 3e 70 3d e9 f9 d1 bc e8 b6 94 3e 52 38 6c 3d
       0.05865371 -0.025631862 0.29045796 0.0576709
000180 2e 8f 42 3e b7 de 65 be 15 70 0d 3e b9 43 62 bd
       0.18999931 -0.2244824 0.13812287 -0.055240367
000190 60 e9 88 bd 4a 4e 77 3e 58 15 ad 3d a5 86 8c 3d
       -0.06685138 0.24150959 0.084513366 0.06861619
0001a0 64 4c 4b be 9b 97 7d 3d 6d 78 9e 3e 79 69 19 3d
       -0.1985336 0.06191216 0.30951253 0.037454102
0001b0 98 3c 89 3d 3f c3 94 3d da 79 56 be 3e 69 7a 3e
       0.067010105 0.07263803 -0.2094492 0.24454209
0001c0 ad c2 d0 3c 19 b1 ab 3e cf 00 4e bd eb 21 a4 bd
       0.025483454 0.33533552 -0.05029374 -0.08014282
0001d0 17 80 21 be 7c 34 47 be 75 2f 80 3e 4a 54 65 3e
       -0.15771519 -0.19453615 0.25036207 0.22395435
0001e0 39 ea 35 3e bb 60 c5 bb 80 42 68 3e 86 cf 64 be
       0.1776513 -0.006023494 0.22681618 -0.22344789
0001f0 7a 4c 3b be 4b 90 46 3e 3a 6c a7 3e 0f 1d 4b be
       -0.18290892 0.19390981 0.32699758 -0.19835304
000200 25 1e c7 3d 3f 1e 09 3e ee 1b df bd b3 12 31 bc
       0.097225465 0.13390444 -0.10893999 -0.010807681
000210 b4 85 0a 3e 04 50 4a 3e 7c c2 de 3c 04 e1 95 3e
       0.13527566 0.19757086 0.027192347 0.29273236
000220 ee 31 20 3e b1 56 1f 3e b4 c3 f8 bd fa 74 ba 3e
       0.15644047 0.15560414 -0.121467024 0.3641737
000230 25 34 ce 3d 45 f0 95 3e 24 fd 9c bd e4 3f 89 3e
       0.100685395 0.29284874 -0.0766547 0.26806557
000240 2a bb 54 be 70 be 81 be 01 95 ac 3c 1a 16 61 3d
       -0.20774522 -0.25340605 0.021067144 0.05495272
000250 58 a4 1e 3e 59 be 0c 3e 86 65 d3 bd 7a 17 9a 3e
       0.1549238 0.13744487 -0.103220984 0.30096036
000260 b7 72 37 be bc 4d 37 3e 2d 46 93 3e c0 1b 51 be
       -0.17914854 0.17900747 0.28764477 -0.20420742
000270 3f c9 6f 3e eb 7c 88 be 02 a0 17 be e4 7e 07 3d
       0.23416613 -0.26657805 -0.14807132 0.033079997
000280 7a 14 df bd c8 e3 8b bc aa b8 ee 3d 4b e5 25 3e
       -0.108925775 -0.017076388 0.116563156 0.1620075
000290 4c 30 ab 3e ca a1 34 3e e1 dd 2b 3e 46 fe dd 3d
       0.33435285 0.17639843 0.16783859 0.108395144
0002a0 ac b5 02 be 82 9a d6 bd d8 00 85 3e 46 d8 c2 bd
       -0.12764615 -0.10478689 0.25977206 -0.09513907
0002b0 32 2f a7 be 48 96 94 3e 34 af 32 3e 7a d7 56 be
       -0.32653195 0.29020905 0.17449647 -0.20980635
0002c0 22 6b 0f be 26 bb 00 3c 36 02 8c be eb 59 8c be
       -0.14005712 0.00785712 -0.27345437 -0.27412352
0002d0 28 6b 1a 3e 7b 2f 3a bd ef 21 f4 bd 27 b0 86 be
       0.1507994 -0.045455437 -0.11920535 -0.2630627
0002e0 81 46 8d 3e 48 e3 a3 3e 82 b7 45 bc 7d 22 a4 3e
       0.27592853 0.3200934 -0.012067677 0.32057562
0002f0 46 74 3b be a0 32 b4 3e 7b 71 14 be bc e5 90 3d
       -0.18306074 0.35194874 -0.14496414 0.07075068
000300 6a 95 fe 3c 07 da 92 bd d1 00 4d 3e fd 3d 9d 3d
       0.031077106 -0.07170492 0.20019843 0.07677839
000310 58 e9 ca bd b7 11 31 bc 11 79 3c 3e f8 a1 4a bd
       -0.09907788 -0.010807446 0.18405558 -0.04947087
000320 0c da f7 3d 0d fb 27 3e bf 8b 6b bd bc 04 10 3c
       0.12102136 0.16404362 -0.05750632 0.008790191
000330 4b 9f 65 3e 7c c3 9e be e3 8e dd 3c a5 d8 11 be
       0.22424047 -0.31008518 0.027045673 -0.142428
000340 0d df 19 3e 06 dc b9 3d 41 56 6e bc cc ee b0 bd
       0.15026493 0.09075169 -0.014546932 -0.08639297
000350 9b a9 6b 3e 0d e9 91 3e 96 70 82 be b1 9d 99 3d
       0.23013918 0.28498116 -0.2547652 0.075007804
000360 5a 94 a2 3e 72 1f 02 be 3e 06 4b 3e aa 35 46 be
       0.31753808 -0.12707308 0.198266 -0.19356409
000370 2f 60 e4 bd dc 31 d4 3d 5e d8 6a 3d 92 85 79 be
       -0.11151158 0.103610724 0.05733525 -0.2436736
000380 c0 6d 8d be 07 6d 59 bd c5 48 2d 3e eb d9 93 3e
       -0.27622795 -0.053082492 0.1692229 0.28877196
000390 a1 f3 98 3e 7f 8f b7 bd 19 95 c7 bc 6f 15 a6 3e
       0.29873374 -0.089629166 -0.024363087 0.32438228
0003a0 2f 72 41 3d b4 7d e9 bd 0f ef 2b 3c 82 ad e7 bd
       0.047228035 -0.11400929 0.010494008 -0.11312391
0003b0 a9 2d a8 3e 13 76 9a be 6c 0c 42 be 72 a9 ab be
       0.32847336 -0.30168208 -0.18950051 -0.33527714
0003c0 f7 73 88 3e d1 5f 57 3e 46 76 f4 bd ed bc 03 3e
       0.26650974 0.21032645 -0.11936621 0.12865038
0003d0 9b b0 44 3e 0b 21 4f 3e b7 2a 09 be 57 b3 94 be
       0.19207995 0.20227449 -0.133952 -0.29043075
0003e0 53 74 45 3e 2d dd 5c be 8f f7 a7 be c2 45 48 bc
       0.19282655 -0.21568747 -0.3280606 -0.012223663
0003f0 b3 20 15 be 0e 98 8d 39 b0 63 5f be 14 b1 6d 3e
       -0.14563255 0.00027006905 -0.21815372 0.23212081

net.2.weight f4 [256, 256]
000000 18 ac 45 3d 82 a0 84 bd 22 33 6d bd 06 f3 46 bc
       0.048259825 -0.06475927 -0.057910092 -0.012142902
000010 f8 f1 20 bc 9f c5 a9 bb 5e 02 4f 3d c7 b4 56 3b
       -0.009823315 -0.005181029 0.050539367 0.003276156
000020 69 74 28 bd 37 65 0d 3d ea 05 4f bc 6b f8 a0 3a
       -0.041126642 0.034520354 -0.012635687 0.0012281066
000030 c2 e1 01 3d 82 5b 65 bd 3b ac e8 bb fb 20 1b 3d
       0.03170944 -0.05599547 -0.0071006096 0.03787325
000040 aa 99 a5 3d b3 34 f7 3c 07 f5 47 bb 2e ca d0 3c
       0.0808595 0.030176496 -0.0030511038 0.025487032
000050 bd 00 12 3e ee 34 c8 3a 6e f2 d3 bc 38 1a cd bc
       0.14258094 0.0015274563 -0.025872435 -0.025036916
000060 7a c3 e1 bb b3 52 ea 3d dd 4b 84 3d 8d b9 17 bc
       -0.0068897577 0.11441555 0.06459782 -0.009260547
000070 5e 16 9a 3b e2 01 0a 3d bb dd c4 39 1c 60 c5 bc
       0.0047023734 0.0336932 0.00037549235 -0.02409368
000080 b4 e5 94 3c 66 27 cb bd 9a 3a 69 bd 48 ea 50 3c
       0.018175937 -0.09919624 -0.056940652 0.0127511695
000090 13 59 d6 b8 29 59 94 bd 87 23 99 bd 0c fd ac 3b
       -0.000102209066 -0.072435685 -0.074774794 0.005279189
0000a0 cd c3 bf 3d 1a 91 ed bc 1c fb 96 bd 0e b7 a0 bd
       0.09363518 -0.028999854 -0.07372114 -0.07847415
0000b0 16 61 2a bc bb 39 8c bd df 0d 5e bd b5 f9 bc bc
       -0.010399124 -0.06846949 -0.054212447 -0.023068288
0000c0 ed cf 7b 3d 74 be 91 3d ae 28 d3 bc be e6 b1 3d
       0.06147759 0.07116404 -0.025776234 0.08686589
0000d0 28 84 c4 3d 1d 2f 41 3d 1d 88 89 3d a4 0d 6e 3d
       0.09595519 0.04716407 0.06715415 0.058118477
0000e0 0b 9a 9e b9 80 39 a4 3d 12 38 49 3c 9d 07 22 bd
       -0.0003025088 0.0801878 0.012281435 -0.03955804
0000f0 13 67 52 bc 02 17 7f bc c1 64 6d 3d 5a 72 bc bb
       -0.012841958 -0.01556945 0.057957415 -0.0057509365
000100 79 4c a1 bb 5a c8 51 bd 21 c4 b6 3c 66 52 80 3d
       -0.0049224463 -0.05121646 0.022310318 0.06265716
000110 af 5b 73 39 e3 c7 e5 bc fc a8 8d 3d 59 b6 9c 3c
       0.0002320844 -0.028049415 0.06916997 0.019129919
000120 fe 4f 11 3d f9 de 64 bd 62 33 19 bd 02 93 08 3d
       0.035476677 -0.055876706 -0.037402518 0.033343323
000130 64 cf 52 bb 20 cd ab 3d b5 16 0e bd ae d8 9c bb
       -0.0032167071 0.08388734 -0.034689624 -0.0047865724
000140 a2 3b 3c bc 18 e9 c7 bd 92 92 41 3d 39 e3 b6 3c
       -0.011488827 -0.09761256 0.04725892 0.022325145
000150 05 31 27 3d f2 84 92 3d 6d 93 5e 3c ce 73 3e bd
       0.040818233 0.071542636 0.013584954 -0.04649716
000160 ad 0e f8 bb 9a 54 67 3d 8b 6d e5 3d 1d 69 a0 bc
       -0.007570109 0.056477167 0.11202534 -0.019581372
000170 0d 53 48 bd 27 ac 0d 3d 6c b0 b7 bd 13 8d e9 3d
       -0.04890733 0.034588005 -0.08969197 0.11403861
000180 a0 b5 ad 3d 93 57 ee 3c 07 aa d9 bc 3b 13 88 bd
       0.08481908 0.029094493 -0.026570333 -0.06644293
000190 1e 84 b2 3d b6 7c 6c bb c1 45 66 3d ff 36 ae 3c
       0.087166056 -0.0036085076 0.056218866 0.021266459
0001a0 e2 37 17 bd 8b 67 a3 3d 1a da 6f bd a8 3a 4d bd
       -0.03691853 0.07978734 -0.058557607 -0.050104767
0001b0 36 7e 06 3d e8 08 11 bd 7a 81 06 bd 85 69 96 3c
       0.032835208 -0.035408884 -0.032838322 0.018360863
0001c0 83 d9 f1 3c 5e 98 0f bd ee 21 b3 bd 83 cb 6d bd
       0.029522663 -0.035057418 -0.08746706 -0.058055412
0001d0 84 a3 18 3d bf 6f 5d 3d 94 73 46 3d 21 ba c0 3b
       0.037265316 0.054061648 0.048450068 0.0058815633
0001e0 ef 8f f6 bc dc 96 d9 3c fb c8 66 bc bc e0 00 3d
       -0.03009793 0.026561193 -0.014086003 0.031464323
0001f0 d7 3e d6 bc 43 8f 05 3d 00 9d 8b bb 12 81 22 3c
       -0.026153011 0.03260733 -0.004260659 0.009918468
000200 01 00 22 bd 58 60 e1 3c cd 7b b0 3d ad f1 2f 3d
       -0.039550785 0.02751176 0.08617363 0.04295509
000210 13 99 1b 3d 7b 2d ff bc 97 23 5c 3d 72 78 b5 3c
       0.03798778 -0.031149616 0.05374488 0.02215216
000220 d2 9f 68 bc 60 24 dd 3c b5 f5 a1 3d ef 6b 1c bd
       -0.01419826 0.026994884 0.07908193 -0.03818887
000230 7b 56 fd 3c ff 26 95 3d c3 17 40 bd 52 14 31 bd
       0.030925026 0.072828285 -0.04689766 -0.04323227
000240 70 21 92 bd bd 8a 96 3d 0a 6b 9f 3d cb a9 cd 3d
       -0.07135284 0.07350681 0.07784088 0.10042151
000250 29 c2 82 bc 4e 9e 56 bd 68 84 2b 3b 77 cd e9 3c
       -0.015961723 -0.052397065 0.002617145 0.028540356
000260 cd 69 96 bc cf 22 be 3d 77 7d 00 bd 4c 0b 33 bc
       -0.018360997 0.09283983 -0.031369653 -0.010927986
000270 a4 2b 9d 3d 08 ee 9d 3c a7 00 de bd cc 6c a1 bc
       0.076743394 0.019278541 -0.10839968 -0.019705199
000280 fe 9c 7d 3c c3 3a 1a bb 06 0c bc bc 0d a2 12 bd
       0.015479324 -0.002353356 -0.022954952 -0.035799075
000290 04 42 8b bc 13 f3 b0 3b 91 81 81 3d ca ad 6a bd
       -0.016999252 0.0054000705 0.06323541 -0.057294644
0002a0 b2 6c d8 bc e3 be 91 3c 43 ea be 3d bb 16 13 bd
       -0.026419017 0.017791217 0.093220256 -0.03591035
0002b0 7c b9 ee bc 6a 0e f9 3b 80 7b 9d 3c 4c f0 d5 3c
       -0.02914118 0.0076005952 0.019223928 0.026115559
0002c0 ca 2c 89 bd 54 d6 81 bc 5c bd 8d bd 37 b9 b5 bd
       -0.06697996 -0.01584927 -0.06920883 -0.088732176
0002d0 60 41 14 3d 73 a8 99 b9 d8 07 2e 3d 77 3d 2b bd
       0.03619516 -0.00029307939 0.04248795 -0.041806664
0002e0 f3 eb 3c 3d eb 18 ea 3c 5b ab 1e bd 3c 53 42 3d
       0.046123456 0.028576335 -0.038737636 0.04744266
0002f0 0c 9c 3e 3c 97 76 0b bd e3 66 d6 bd c4 95 30 3d
       0.011633884 -0.034048643 -0.10468843 0.043111578
000300 f8 57 83 3c 78 aa 80 bd 0f 99 dc 3c 53 3b 9f bc
       0.016033158 -0.06282514 0.026928453 -0.019437468
000310 4b f3 bb bd f9 fa 72 3d c7 e2 6a bc dd 43 71 bc
       -0.09177264 0.059321377 -0.0143362945 -0.0147256525
000320 34 d6 83 3d 17 7b c1 3d de 76 8b bc b2 23 b4 bd
       0.064373404 0.09447306 -0.017024454 -0.08795871
000330 b8 be 8c 3d 4f c2 80 3d 27 80 a5 bd 09 e3 4e ba
       0.06872314 0.062870614 -0.08081084 -0.0007892107
000340 e3 55 96 bd 0f 22 84 3d 2c 08 3a bd 66 5a 40 3d
       -0.073406 0.06451809 -0.04541795 0.04696121
000350 70 59 d2 bb 4f 1b c5 bc f9 da 0c bc 06 b8 cb 3b
       -0.006419353 -0.024060873 -0.008597129 0.0062170057
000360 80 a1 f6 3c 85 85 71 bc 1a 61 3f 3b ab b2 05 bd
       0.030106306 -0.014741306 0.0029202164 -0.032641094
000370 2e ed 61 bd 9e 5c 7d 3d d1 30 a0 3c 61 4c db 3c
       -0.055157833 0.061855905 0.019554527 0.026769819
000380 cf 29 8e 3d a8 8b 44 bc b3 93 ae 3d fd 83 85 3c
       0.06941568 -0.011996187 0.08524265 0.016298288
000390 f4 12 18 3c 10 86 27 3d b2 02 88 3c b1 2d 1d bd
       0.0092818625 0.040899336 0.016602848 -0.038373653
0003a0 a8 3c 29 bd e3 76 3f 3c 44 34 e0 3c 86 8a 67 bc
       -0.041317612 0.01168606 0.027368672 -0.014132148
0003b0 53 69 92 3c 9c 25 dd 3a 4e 42 60 3d 4f ee 23 bc
       0.017872488 0.001687217 0.054750733 -0.010005548
0003c0 9f 05 5a 3d f5 c5 9c 3c 84 aa ff ba 71 d4 9a bd
       0.053228017 0.019137362 -0.0019505774 -0.07560051
0003d0 21 9e a0 3d 2a 6b e7 bb 1c 43 4f 3d c8 d4 38 bc
       0.07842661 -0.0070623355 0.05060111 -0.0112812
0003e0 7d 88 b6 3d 34 7a c1 3d a6 d5 5f 3d 9a 47 65 bc
       0.08912752 0.094471365 0.05464711 -0.013994122
0003f0 8c 4d fc bc dc f1 0c bd eb 98 d5 bb 05 ca 49 3d
       -0.030798696 -0.034410343 -0.0065184734 0.049264926

net.2.bias f4 [256]
000000 c9 2e 4e 3d 2b b3 5f bc 4c 35 93 bd 37 89 2e 3d
       0.050337587 -0.013653557 -0.071879 0.042611327
000010 ac 22 95 3b bd e6 08 bd b8 34 96 3c 54 5c a2 bb
       0.0045512524 -0.033423174 0.018335685 -0.004954854
000020 ab 2f 88 bc 75 3f cb bc 08 b6 a1 bc de 8f 53 3d
       -0.016624292 -0.024810532 -0.01974012 0.051650874
000030 18 0d 18 3d 0f cc 44 bd ac 9d 58 bd 05 22 55 3c
       0.037121862 -0.048046168 -0.052884743 0.013008599
000040 ef e5 87 bd ca 0b 69 3c fa 93 00 bd 58 70 37 3d
       -0.06635653 0.014224002 -0.03139112 0.044784874
000050 ae a3 e0 3c c9 02 90 3d 7d 63 a2 3d 2f e9 61 3b
       0.027421799 0.07031781 0.07929132 0.0034471264
000060 08 8e 64 bd 2d 7b 2d bd 3c 04 7c 3d 6d 97 1b bd
       -0.055799514 -0.042353798 0.061527476 -0.037986208
000070 a0 e9 b9 3c dd 36 ff 3c b7 bd 08 bd 8a 4c 8b 3c
       0.022694409 0.03115409 -0.03338405 0.01700427
000080 79 db 57 bc 03 29 f7 bc d2 9b 12 3c 76 90 38 bd
       -0.013174885 -0.030170923 0.008948283 -0.045059644
000090 8b 8b 96 bc 3a b0 0a 3d 0d 8e 92 3c 62 f9 1d bd
       -0.018377086 0.03385947 0.01789 -0.038567908
0000a0 39 b0 ad 3c d2 e2 d7 3b f6 6c 63 3b a0 78 34 bb
       0.021202194 0.0065883184 0.0034702397 -0.0027537718
0000b0 3d 06 b1 3c a5 12 31 3d 42 e6 b2 3c 51 ab 22 bb
       0.02160942 0.04323067 0.021838311 -0.002482135
0000c0 49 d5 17 bd 06 60 16 bd 3a fc 2a 3d a8 29 bd bc
       -0.03706864 -0.03671267 0.04174445 -0.023091152
0000d0 d0 4a 5f 3b 04 33 9e bd 24 29 30 3d d3 ce ac 3c
       0.0034071691 -0.07724574 0.043007985 0.021094715
0000e0 8c 3b 7f 3c b3 51 1a 3d 0d bb d1 bc 0d 9f ff bc
       0.015578162 0.03767557 -0.025601888 -0.031203771
0000f0 ef e8 15 bc bb db 37 bd 7a 48 02 3c 7a 25 87 3d
       -0.009149774 -0.044887286 0.00795185 0.06598945
000100 20 44 1e bb 8d 2e 11 bd b4 47 bb b8 d2 bc 86 3d
       -0.0024149492 -0.035444785 -8.9302106e-05 0.06578983
000110 b7 a7 26 bd 95 e9 84 3d 6b 0a fb bc 19 5c 7d bc
       -0.04068729 0.06489865 -0.030644616 -0.015463852
000120 5a 62 32 bd 0f 38 b8 3c 34 21 20 bc b2 94 43 3c
       -0.043550827 0.022487668 -0.009773541 0.011937307
000130 49 5c 0b bd e7 b6 46 3c 08 6d 85 3d 57 20 09 bd
       -0.034023557 0.012128568 0.06514937 -0.033478107
000140 48 f4 9c bb fa 55 82 3d a7 c9 2f 3d 9e 77 83 3c
       -0.004789863 0.06364055 0.04291692 0.016048249
000150 57 81 58 3d f4 8a 26 bc 26 d1 a6 bc ea cc 4a bc
       0.052857723 -0.010164965 -0.020363402 -0.012377957
000160 8c cd 77 bd 85 75 2d bd 2b 2f a7 3c f0 e5 16 3d
       -0.06049876 -0.042348403 0.020408234 0.03684038
000170 1e f3 d3 3c 8a 2e 88 bc a8 d2 ab 3a 89 7f cf 3c
       0.025872763 -0.016623754 0.0013109045 0.025329368
000180 04 a4 73 bd 91 eb 7e bc 9b b8 83 3c 8c 71 7e bd
       -0.05948259 -0.015559093 0.016079238 -0.062120005
000190 32 8e 0a 3c b1 e6 70 bd c1 8b 29 3c 79 16 84 3d
       0.008456754 -0.058813754 0.010348261 0.06449599
0001a0 26 5c 15 3d 89 4a e9 bb 70 a2 43 bd 40 63 6f bd
       0.036464833 -0.007119481 -0.047762334 -0.05844426
0001b0 ab 07 bc 3c c2 b9 8b 3d 90 89 2e bd dd bd 14 3d
       0.022952875 0.0682254 -0.04261166 0.03631388
0001c0 bd 7c 44 3d 17 e2 fb bc ad 58 64 3c 03 97 8c bd
       0.047970522 -0.030747456 0.013937158 -0.06864741
0001d0 9c 6d 0e 3d db 10 86 3c 8c c4 e0 bc fe 60 84 bd
       0.0347725 0.01636546 -0.02743747 -0.06463812
0001e0 81 1b 35 bd 65 2b 29 bd f5 f3 0e 3d 87 18 ef bc
       -0.044215683 -0.04130115 0.034900624 -0.0291865
0001f0 37 00 63 3a 27 1b 68 3d b5 ae 82 3d c5 1c fe bc
       0.0008659395 0.05666652 0.06380979 -0.031019578
000200 58 00 4b bd 89 ab da 3c 0f 53 3d 3d 56 fd 00 3d
       -0.049560875 0.026693122 0.04622179 0.0314916
000210 7a 69 62 bc ea 3e 3f 3d 7d 66 fe bc 1d 2e 1d bc
       -0.013819093 0.04669086 -0.03105473 -0.009593514
000220 ce 72 43 3d 74 e8 3f 3d 68 eb 70 3c 84 79 39 bd
       0.04771691 0.046852544 0.014704563 -0.045281902
000230 8a d5 cd bb fd 3c 8d 3d ec cb be b9 a1 19 03 3c
       -0.0062815594 0.06896398 -0.00036391558 0.008001716
000240 b2 2c 92 3c e0 9f de bc 32 8e c8 bc f2 00 cf 3c
       0.017843578 -0.027175844 -0.024481867 0.025269005
000250 ec bd c2 bc da 69 7c bc a3 de 08 3d e2 90 71 3d
       -0.023772202 -0.015406096 0.033415448 0.05897606
000260 1c f2 69 bd a4 5b 2b bc f5 91 30 3c f1 61 36 bd
       -0.05711566 -0.010458861 0.010776986 -0.044526998
000270 65 24 9f 3c 4f d8 4b 3c b4 a4 5c 3d 1d e8 94 bc
       0.019426534 0.012441709 0.05386801 -0.018177086
000280 8c a9 17 3c d0 d5 1d bd 92 a9 88 bc af ae e1 3c
       0.009256732 -0.038533986 -0.01668242 0.027549116
000290 e8 fc 34 bd 50 e3 64 bc 0e 0b 94 3d 3e 71 fc 3c
       -0.044186503 -0.013970211 0.07228671 0.030815717
0002a0 dd 07 13 3d 2c 36 02 bb 47 34 33 3d 44 3c 31 bd
       0.03589617 -0.0019868715 0.043751027 -0.043270364
0002b0 23 4f 80 bc 57 fc 12 bd ec 09 c8 bc 6d 45 1b 3a
       -0.015662735 -0.03588518 -0.024418794 0.0005923126
0002c0 1e 8c 25 3d e4 16 4f 3c 1a 75 12 3c 52 62 10 bc
       0.04041683 0.012639735 0.008939052 -0.008812504
0002d0 76 85 4c 3d ce 8d 34 3c 96 0c ec ba 29 85 74 bc
       0.049931966 0.011020137 -0.0018009122 -0.014924326
0002e0 81 d5 d9 bc ba 17 02 3d c8 f4 71 3d 22 04 e6 3b
       -0.026591064 0.03176091 0.059071332 0.0070195356
0002f0 ed 7c 5e 3d 30 86 a1 3b c6 ab 36 3d b6 8f 7e bd
       0.054318357 0.0049293265 0.04459741 -0.062148772
000300 61 55 1b bd cd fa 45 3c 05 53 d8 3c 0d 4f 18 3d
       -0.03792322 0.012083721 0.026406774 0.037184764
000310 aa bb c6 3c a7 53 70 3c 3c 05 01 bd 94 97 59 bd
       0.024259407 0.014668382 -0.031499133 -0.05312307
000320 8a 42 60 bc a8 5f 70 3d d1 5f 6d 3c dc 8d 7a bd
       -0.013687739 0.058684975 0.014488176 -0.061170444
000330 88 ee 25 bc 9e 48 1a bd 84 74 2d bd d5 40 be bc
       -0.010127671 -0.03766691 -0.042347446 -0.023224274
000340 01 d1 06 3d 60 fc a5 3c 01 9a 47 bd 9a 57 6b bd
       0.032914165 0.020261943 -0.048730854 -0.05745659
000350 27 11 3e 3d ac 33 84 bd 4d 55 0b bd ed aa 11 3d
       0.046403076 -0.06455168 -0.034016896 0.0355634
000360 2d 96 74 3b 6d 9c 63 3c d2 8c 45 3c 20 2a 7b 3d
       0.0037320957 0.013892275 0.0120575 0.06131947
000370 c1 e2 00 3d 9f b2 19 bd 0f 16 2b bd 7e 9a 03 bd
       0.03146625 -0.037523862 -0.041769084 -0.032129757
000380 4b ad 00 3d b4 44 a5 3c 7d a3 0c bd 27 f1 f5 3c
       0.031415265 0.020174362 -0.034335602 0.030022217
000390 21 df 77 3d 7f 8b ae 3d 2a b9 10 bd 97 af 0b bd
       0.060515527 0.085227005 -0.035332836 -0.034103002
0003a0 59 d8 0f bd 26 d7 00 3a 68 9e 82 3d 07 cd 9d ba
       -0.035118435 0.0004914872 0.0637787 -0.0012039252
0003b0 4f 79 fe 3c b8 5e bb 3c f4 87 57 3d cb 01 39 3d
       0.031063704 0.022872314 0.05261989 0.045167726
0003c0 5a ca c5 3c 7a e5 f5 3c c3 cd af bc 86 c7 a3 3c
       0.02414434 0.03001665 -0.02146042 0.019992601
0003d0 ff b0 35 bd f6 7c 14 3d 14 f2 eb bc 73 24 02 3c
       -0.04435825 0.036251985 -0.028801955 0.0079432605
0003e0 aa aa a3 bc 5d a8 2e 3b 6f 75 a9 3c 90 2d ba bc
       -0.01997884 0.0026650645 0.02068588 -0.022726804
0003f0 39 81 4e 3d 2e e0 42 3d 31 5b d8 bc 76 e2 5f bc
       0.050416205 0.047577076 -0.026410671 -0.013664832

net.4.weight f4 [4, 256]
000000 c9 da 81 3c 14 0d b4 bd 0e 1e 70 bc fa ef 6e bd
       0.015851395 -0.08791557 -0.014655603 -0.05833433
000010 c0 3a 26 bc da c1 a1 bd c9 8a 87 3d 1b 49 eb 3c
       -0.010145843 -0.078983024 0.06618268 0.028721383
000020 9f 1e c2 bd 9c 6e 63 bd 6c 53 22 3c 0d 7d bf bc
       -0.09478497 -0.055525407 0.009907585 -0.023375059
000030 4d ae 65 bc d0 5e 2e 3d cb 8f 2a bd 3a d6 15 3b
       -0.014018607 0.04257089 -0.041641038 0.0022863285
000040 d1 0e 2c bc 7c 89 06 3d af 0a 59 3d 60 f9 64 3d
       -0.010501579 0.03284596 0.052988704 0.055901885
000050 80 5a 92 3d 3c 54 25 bd a8 53 a0 bd 8e db 35 bd
       0.07146168 -0.040363535 -0.07828456 -0.044398837
000060 82 63 95 bc b9 b3 60 bd d0 44 81 bd fe c9 4e 3b
       -0.018235926 -0.054858897 -0.06311953 0.0031553502
000070 59 9d 5d 3d 79 9d 12 bd 9b 55 da bb 51 da 51 bd
       0.054105137 -0.03579471 -0.006663037 -0.051233593
000080 f1 d0 1f 3d 97 8c 6b bd ad 77 a3 bd 28 be b4 3d
       0.03901762 -0.057507124 -0.07981811 0.08825332
000090 25 a9 c8 bc 26 36 8c bc bd f6 51 3d ca d5 0d 3a
       -0.024494717 -0.017115664 0.0512607 0.000541058
0000a0 16 88 d4 bc 74 18 b8 bc d8 76 eb 3c 5d a7 a1 3c
       -0.025943797 -0.022472598 0.028743193 0.019733125
0000b0 6e f3 24 bd b7 5a 29 bd 6a 7b 56 bd c1 86 34 bd
       -0.040271215 -0.041346278 -0.05236379 -0.044073824
0000c0 06 6f 92 bd 60 51 b3 bd dc 85 1c 3c 7c 0e 20 bd
       -0.07150082 -0.087557554 0.009553399 -0.039076313
0000d0 1f 73 06 bd 7b 8a 80 3c a5 ff 9d 3c c4 ee 9e 3c
       -0.03282463 0.015691033 0.01928694 0.019400962
0000e0 6d e0 53 bd d8 8d 92 3c 68 18 35 bd b2 d2 d0 bc
       -0.0517277 0.017889902 -0.04421273 -0.025491092
0000f0 85 5c 02 bd ba af be bc 18 b1 32 bc 0d 78 16 3c
       -0.031826515 -0.023277152 -0.01090648 0.009183896
000100 d7 63 0c 3d 6c fb e2 3c 3a 24 8d 3d 32 53 03 3e
       0.034274902 0.027707778 0.06891675 0.12824705
000110 fc 26 3b 3d 44 2a 97 bd e7 03 97 bc 6a 5e 55 3d
       0.045691475 -0.073811084 -0.018434478 0.052091993
000120 c3 46 c8 3d ce 45 35 3d 9d 5e 95 bd bd 66 18 3c
       0.09779122 0.044256024 -0.07293437 0.009301838
000130 63 c0 de 3d 83 4f 57 bb 7a 5e 3c bd 45 95 4d 3c
       0.108765386 -0.003285379 -0.045988537 0.012547796
000140 60 80 ee 3d 29 ba fa 3d 7a a3 64 bc e9 cc b3 bd
       0.11645579 0.122425385 -0.0139549915 -0.08779318
000150 95 2f 60 3d a1 75 6d bb c0 45 1f bd e8 50 7a 3b
       0.054732878 -0.0036233442 -0.03888488 0.0038195197
000160 96 b6 f8 3a 34 23 84 3c b1 96 89 bd eb d6 4e 3c
       0.0018975313 0.016130067 -0.06718195 0.012624483
000170 02 54 a1 3d f9 e6 4c bd 93 30 29 bd 1f 91 33 3d
       0.07877351 -0.05002496 -0.04130609 0.04383957
000180 56 be 07 bd fa f3 2e bd 04 10 4d bd 43 c2 33 3d
       -0.033140503 -0.042713143 -0.0500641 0.043886434
000190 c1 a2 3a 3c 37 36 70 3c 07 b9 a5 3d 13 54 ae 3d
       0.011391343 0.014661363 0.08091932 0.0851213
0001a0 be ea 25 3d 50 8d 50 bd 1e 17 a6 3d 36 61 50 3d
       0.04050707 -0.050916016 0.08109878 0.050873958
0001b0 70 17 2f 3d de 18 a9 3d 1a c3 0b bc 77 f8 56 bc
       0.04274696 0.08256696 -0.008530403 -0.013120762
0001c0 2e e9 96 3d b2 4f 40 3d ee 65 c6 bc 62 70 3d 3d
       0.07368694 0.046951003 -0.024218526 0.046249755
0001d0 9f 3f 1a 3d 26 32 18 bd e9 84 60 3d 1f 4d 61 bd
       0.03765833 -0.0371572 0.054814253 -0.05500519
0001e0 89 05 03 3d 14 9b bd 3d d7 39 54 3d 37 33 9b bc
       0.0319877 0.092580944 0.051812973 -0.01894532
0001f0 f4 d8 17 bd da 60 7e bd 9d e9 28 bd f0 c1 7e 3d
       -0.037072137 -0.062104084 -0.041238416 0.062196672
000200 72 51 bb 3c 05 a8 1c bc fa 32 3b 3d d7 54 58 bd
       0.022865985 -0.009561543 0.045702912 -0.052815285
000210 06 db b3 3d 5f 48 8f bd 72 e7 16 bd 28 28 f3 3b
       0.0878201 -0.069962256 -0.036841817 0.0074205585
000220 ce c1 f1 3d 4a ed 04 bd 88 33 11 bd ea 9e 7e 3d
       0.118045434 -0.03245286 -0.035449535 0.06216327
000230 90 9c b9 3d 87 f3 fc 3c 5d 59 ac 3c b0 95 a8 bd
       0.09063065 0.030877842 0.021038705 -0.082316756
000240 ce 27 50 bc a5 be 8c bd b6 3d 84 bd 9c 1e ec 3a
       -0.012704803 -0.068723 -0.06457083 0.0018014493
000250 02 4f b6 bd 7e eb 15 3d 58 44 50 bd 46 42 bc bc
       -0.08901788 0.036601536 -0.050846428 -0.02298082
000260 5c a6 2a bd be 76 d7 bc 56 0a 37 bc cf 21 66 bc
       -0.04166256 -0.026301738 -0.011171898 -0.014046147
000270 c6 88 90 3c aa ef 3c bd ca ac 53 bd 0c 6e 92 3d
       0.017643344 -0.046127 -0.051678456 0.07149896
000280 bc 34 dc bd 4c fa b2 3c 90 34 a8 3d bb 39 a5 bd
       -0.10752246 0.021847866 0.082131505 -0.08067652
000290 87 59 ac 3c a3 55 bd bd 16 89 8e 3c b3 8c d2 3b
       0.021038784 -0.092448495 0.017399352 0.006425464
0002a0 0f 15 25 bd f4 d8 ea bc be dd b3 3b 36 c1 23 3d
       -0.040303286 -0.028667904 0.00548908 0.039979182
0002b0 cd 3b 13 bd 71 89 03 3e f2 41 7e 3d df 3d 9d 3c
       -0.035945702 0.12845398 0.06207461 0.019194541
0002c0 e1 d7 08 ba 04 36 21 bd f6 cb b9 3c f2 73 81 bd
       -0.0005220157 -0.039358154 0.022680264 -0.06320943
0002d0 d1 dd ad bd 07 2e 9e bd 2b d4 79 3d ca 7f 35 3d
       -0.08489574 -0.07723623 0.060993355 0.044311322
0002e0 a5 17 70 bd 6e c7 36 bd 7b 55 a3 bd 33 d1 ea 3c
       -0.0586163 -0.044623785 -0.079752885 0.028664207
0002f0 48 e8 08 bd c5 62 5e 3d c3 09 1a 3d 9f 12 c5 bc
       -0.033424646 0.054293413 0.037606966 -0.02405673
000300 fe 8a 2f bd 35 a4 df bc 6a 85 0b 3d 64 c1 fe 3b
       -0.042857163 -0.02729998 0.03406278 0.007774519
000310 17 7b e2 bc 74 df 38 bd ae 7c 03 3c 4c 2a 88 bb
       -0.027646584 -0.045134977 0.008025331 -0.004155433
000320 bf 4a 0f bd 9b bf 8b bd f0 b7 ed 3c 27 fb 89 bd
       -0.034983393 -0.06823655 0.029018372 -0.06737357
000330 8f 30 0d 3e 17 ab 0a 3d bf 89 3e 3d 33 eb fe bc
       0.13788055 0.03385457 0.046518084 -0.031118011
000340 88 f1 7e 3c 41 8b b7 3c 0c 55 57 bc e9 83 37 3d
       0.015560515 0.022405269 -0.013142835 0.044803534
000350 25 d0 17 bd 91 56 9e bb 63 88 ec 3c fd cb 59 3d
       -0.037063736 -0.004832097 0.028873628 0.053173054
000360 ca 49 6a bd 6a 58 22 bd b7 26 73 bd d2 53 28 b9
       -0.057199277 -0.0396351 -0.059363093 -0.00016052954
000370 f8 43 a2 bc f2 10 be bc 13 ec 45 bd 8e cb 66 bd
       -0.0198078 -0.02320144 -0.04832084 -0.05634647
000380 f7 9e 44 bd e6 e1 9a bd 67 51 a0 3b c8 c8 7a 3b
       -0.048003163 -0.07562618 0.0048925164 0.0038266648
000390 fa 50 bc bc 9d c7 df bd fc 4a 16 3d 55 80 33 3d
       -0.022987831 -0.10926745 0.036692604 0.04382356
0003a0 28 fd cb 3d a2 9f 03 bd 96 f4 f2 3b 90 81 90 3d
       0.09960395 -0.03213466 0.007414411 0.07055962
0003b0 0f 7c 85 bd ce d3 25 bd ac f0 ec bb 19 e5 9f 3c
       -0.06517803 -0.040485196 -0.0072308388 0.019518422
0003c0 c3 e9 38 3d 75 5e 47 bd bb 3b 1d bc 28 92 fa 3d
       0.045144808 -0.048674066 -0.00959676 0.12234908
0003d0 c2 64 d1 3c 80 6e cb bb 42 34 f6 3d 2e 97 6a bc
       0.02556074 -0.006208241 0.12021686 -0.014318271
0003e0 a6 43 7c 3c 68 f3 f3 3c bf a9 cf 3a 82 99 b4 bd
       0.015396988 0.029779151 0.0015843435 -0.08818342
0003f0 c1 38 0a bd 4d 63 23 3d 77 eb cb 3d ef ad d5 3c
       -0.03374553 0.039889622 0.09957021 0.026083915

net.4.bias f4 [4]
000000 7a c5 35 bd 79 1c bc 3a de 2a 8a 3d 2b 18 30 3d
       -0.04437778 0.0014351747 0.067464575 0.0429918
