LunarLander-v2.pth (torch_old, 7546 bytes, 4 tensors)

net.0.weight f4 [128, 8]
000000 53 9c 57 bd 7e 6f 83 3a 07 d7 99 3d c3 ec 1e 3f
       -0.052639317 0.0010027734 0.07511716 0.6208002
000010 9e 73 f7 3d 3a 37 81 be cd 73 21 be d3 4c d0 3d
       0.12082599 -0.25237447 -0.1576683 0.10170903
000020 66 b8 41 3e 88 52 c9 3b a1 2c 9c be ed 72 19 3f
       0.18917999 0.0061438717 -0.305028 0.5994099
000030 4f 89 cd 3c 2e 96 91 3d 6c cc df 3e 15 2a 0c 3e
       0.025089888 0.071087226 0.4371065 0.13687928
000040 5c 87 75 3e 96 23 7a be 51 ef 30 be eb c1 68 be
       0.23977417 -0.24427637 -0.17278792 -0.22730224
000050 44 60 3f be 9d 20 a8 bd 4a 1a 3b 3e 9c 1e 8d bd
       -0.18689066 -0.082093455 0.18271747 -0.06890604
000060 bb 18 52 bd 4c 5d 7b 3e a3 f1 8e 3e c5 4e 9c be
       -0.051293116 0.24547309 0.2791873 -0.30528846
000070 e1 3c c9 bd e2 42 65 3c a8 10 89 3e 25 89 e1 bd
       -0.09826065 0.013992997 0.2677052 -0.11012486
000080 a7 7e 60 bc 00 ee 85 3e 11 ca 84 be ba 0c a2 bc
       -0.013702071 0.26158142 -0.25935414 -0.01978146
000090 56 3c 3b 3e 42 2e 49 be e4 9c 95 be b5 b8 2e be
       0.18284735 -0.19646552 -0.2922126 -0.17062648
0000a0 b6 d3 72 3e e7 96 4f be dd e0 b9 bc fc fb 9f be
       0.23713574 -0.20272408 -0.022690231 -0.31246936
0000b0 81 8e ad bd fe d3 d7 3e 09 4d 4a bd c1 7e 7d be
       -0.08474446 0.42153925 -0.049389873 -0.24755384
0000c0 b8 2f 92 3e 73 dc 0d 3e 01 b2 cd 3e 03 f2 5d be
       0.28552032 0.13853626 0.4017487 -0.21674351
0000d0 8f 9d 0f bf 96 a5 f2 be 55 07 8f be 70 23 ba 3d
       -0.5609979 -0.47391957 -0.2793528 0.090887904
0000e0 c0 e9 26 3e e9 e1 a6 3e 38 02 a8 3e 52 a9 98 3d
       0.16300106 0.3259423 0.32814193 0.0745417
0000f0 d1 1d b4 be 78 9f 80 3d 31 72 88 3e 36 56 8f bc
       -0.35178998 0.06280416 0.2664962 -0.017497163
000100 77 f0 98 3e 3f 73 03 bd d8 c5 ec 3d 40 09 ac bd
       0.2987096 -0.03209233 0.11561173 -0.08400202
000110 d5 93 94 3e d2 73 d9 bd 48 11 3b bd 0a 97 1b 3e
       0.29019037 -0.10617794 -0.045670778 0.15194336
000120 c9 75 89 be 53 e9 53 3e 62 17 27 be 2d 19 b0 3e
       -0.26847675 0.20694475 -0.16317514 0.34394208
000130 f4 cd 52 3d d8 cb 8e be 0e f3 92 3c 1b 29 10 be
       0.051465943 -0.27889895 0.017938163 -0.1407818
000140 c2 e6 b2 3e 98 f5 06 3e b9 38 b5 3e 65 d3 f8 be
       0.3494168 0.13179624 0.35394838 -0.4859878
000150 ae 09 a7 3e 25 9c 8a 3e e5 ab 7b be ba 3b 96 3d
       0.32624573 0.27072254 -0.24577291 0.07335611
000160 93 53 dc 3c e6 e4 f3 bd d7 a7 c9 3e 81 5b a0 3e
       0.02689532 -0.11908893 0.39385864 0.31319812
000170 d1 b7 84 bd 4e da 8f bd 3f f5 64 3e 03 66 ac 3e
       -0.06480373 -0.0702406 0.22359179 0.3367158
000180 c3 06 99 3e 34 78 d6 3e 97 29 8e 3e 19 af f8 ba
       0.2988797 0.41888583 0.27766106 -0.0018973082
000190 81 ef b3 be 02 8c a6 be ca 73 18 be 32 66 e1 bd
       -0.35143664 -0.32528692 -0.1488792 -0.1100582
0001a0 27 7e f7 3e 2b 03 56 3b 4b 95 01 3e 97 88 aa 3d
       0.48338434 0.0032655697 0.12654607 0.08326834
0001b0 57 36 0c bf a5 40 4b 3e bc fb fc bd 02 64 a4 3d
       -0.54770416 0.19848879 -0.12352702 0.080268875
0001c0 9c 02 8d bc 02 c4 7b 3e 5d 21 63 be 88 85 30 3d
       -0.017213158 0.2458649 -0.22180696 0.043096095
0001d0 a6 4a bb be e7 12 2a bd d2 08 35 be 77 1e 06 3e
       -0.3658039 -0.041521933 -0.17679146 0.13097559
0001e0 16 11 88 be 77 f7 e9 be 9f 11 29 3e b7 4b db 3e
       -0.26575536 -0.45696613 0.16510628 0.42831203
0001f0 31 f8 59 3d 93 5a 1a be cf 0b 48 3e 18 63 c7 3e
       0.05321521 -0.15073614 0.19535755 0.3894279
000200 3c 47 01 3e d8 ea 5e 3e bc ae 5d bd ef f8 ec bd
       0.1262483 0.21769273 -0.054121718 -0.11570918
000210 ab 9c d8 3d 22 29 c2 be 6f c0 a5 be 17 59 88 be
       0.10576757 -0.37922007 -0.32373378 -0.2663047
000220 20 01 81 be 1d 7a 29 3e f1 96 83 3e ec 76 8f 3e
       -0.2519617 0.16550489 0.25701097 0.28020418
000230 c7 ed 9a 3e 18 f2 07 be 07 2e 8f be 98 39 99 bd
       0.30259535 -0.13275945 -0.27964804 -0.07481688
000240 17 c7 d4 bd 2e 8b 6d 3e 71 3a f5 3e 68 b2 c3 3d
       -0.10389536 0.23197624 0.4789615 0.09555513
000250 f9 39 cc be 3d 3e 0f bf 72 c1 43 bb 03 19 6e 3e
       -0.3988798 -0.55954343 -0.002986994 0.23251729
000260 23 a4 5e be e9 2d eb bd 5e 18 7c 3e 47 3a b7 be
       -0.217423 -0.11483366 0.2461867 -0.3578665
000270 99 63 01 bf aa af ba be 1e fd a1 bd ca c1 40 3e
       -0.505426 -0.36462146 -0.079096064 0.18823925
000280 9c 81 1f 3e 6b a6 3c bd 6e c5 82 be 9a 20 34 3e
       0.15576786 -0.046057146 -0.25541252 0.17590562
000290 2f 04 e8 3e a5 15 a0 3e 59 f1 bb 3e 8a 08 ba 3e
       0.45315692 0.31266513 0.3670757 0.3633464
0002a0 33 d6 0f 3e 0b aa ba 3d 6e 23 81 3e 9e 23 2d 3e
       0.14046554 0.09114464 0.25222343 0.16908118
0002b0 ef d2 f7 be 0c e2 93 be 83 2d a7 3e fe 47 90 be
       -0.48403117 -0.28883398 0.3265191 -0.28179926
0002c0 4e e2 47 3e 3b 66 e5 3d 05 dd 34 be 35 b6 14 3e
       0.19519922 0.112011395 -0.17662437 0.14522631
0002d0 f1 e9 93 bb 3f 4f 98 bd fe 36 b1 be b0 a3 4c bd
       -0.004513972 -0.0743699 -0.34612268 -0.049960792
0002e0 20 61 b2 3e dc bc 63 be 38 5a 9a 3e 47 6e 1a 3e
       0.34839725 -0.22240013 0.30146956 0.1508113
0002f0 85 15 43 be b6 26 f5 bd 4c 98 59 3c ec 50 3d be
       -0.19051178 -0.11970274 0.013280939 -0.184879
000300 f8 1e d0 3d fe 67 bc bc f6 93 dc 3d ac 52 ca 3e
       0.10162157 -0.022998806 0.10770409 0.395162
000310 6c e9 d9 bd 6a 3d b0 be 59 33 93 3e d9 71 25 be
       -0.10640225 -0.34421855 0.28750113 -0.1615671
000320 88 9e aa bc ad 02 b0 be df 84 f5 bd 10 5b 9f 3e
       -0.020827547 -0.3437704 -0.11988234 0.31124163
000330 97 a4 6a 3d 43 f2 31 3d 16 94 2a 3e 17 52 bd 3e
       0.05728587 0.04344393 0.16658053 0.36976692
000340 1d b6 b2 be 1f d6 16 be 3c 6e 5e be bf 43 c8 3e
       -0.34904566 -0.14730118 -0.21721739 0.39114186
000350 e2 e9 95 be ca 7b a3 3e a7 49 0f 3e 24 2d b7 3e
       -0.2928 0.3193038 0.1399294 0.35776627
000360 b5 31 3c be 78 ea d2 3c 30 8f 21 3d 69 fc d9 be
       -0.18378337 0.025746569 0.039443195 -0.42575386
000370 3a db 2e 3f e2 9f d0 3e 32 3c 7a 3e 30 24 0a bd
       0.68303263 0.4074698 0.24437025 -0.033725917
000380 c9 a0 1e be 98 d6 9d be 8d 10 de 3d 7a 26 9d 3e
       -0.15491022 -0.30827785 0.108430006 0.30693418
000390 7d e9 ca be a8 a5 9b be 8e e9 d8 3e d8 15 53 3e
       -0.39631262 -0.30399823 0.42365688 0.20613801
0003a0 20 c6 d9 bd 0c be fb bd a7 5f 97 3e 77 51 2b be
       -0.106334925 -0.12292108 0.29565164 -0.16730295
0003b0 28 18 95 be 49 7a a5 3c 4a 91 fa 3d 3f c6 b7 bb
       -0.29119992 0.020199912 0.12234743 -0.0056083496
0003c0 af 2a d0 be 7b 97 a6 3e b9 10 3b bd 4e 4d e8 be
       -0.40657565 0.32537445 -0.045670245 -0.4537148
0003d0 d4 7d 1c 3f 03 59 60 3e 11 4f 2d 3e fa db 89 be
       0.611295 0.21908955 0.16924693 -0.2692564
0003e0 ac 0c 77 bd 03 ab 9d 3d 4a 94 10 be fd 95 9a be
       -0.06031482 0.076986335 -0.14119068 -0.30192557
0003f0 d4 2e 01 3e 20 73 90 3e 8e f9 a0 be 24 0d 09 3e
       0.1261552 0.28212833 -0.31440395 0.13383919

net.0.bias f4 [128]
000000 1d 75 61 3e 10 c2 9a 3e 7d 83 b3 be 3b ff a1 3e
       0.22017331 0.30226183 -0.35061255 0.31640038
000010 37 fb cb be ec 0a 8f 3e 8f fe 06 3e 7f 44 f8 bc
       -0.398401 0.2793802 0.13183044 -0.030306099
000020 7d 61 f7 3d db 53 61 be 16 16 68 3e d4 8c 8c 3e
       0.12079141 -0.22004645 0.22664675 0.27451193
000030 6d 4d b6 bd 53 25 29 3e f6 83 af 3e c4 2a 18 3e
       -0.089014865 0.16518144 0.34280366 0.14860064
000040 e9 b1 82 be ec bf a0 be 15 00 a2 3e 14 89 51 3e
       -0.2552636 -0.31396425 0.31640688 0.20462447
000050 9f d4 aa 3e 70 8c 5b 3e 5b 82 43 bd f1 6e a0 3e
       0.33365342 0.21440291 -0.04773174 0.31334642
000060 36 07 7f 3e 11 c6 c0 3d 99 80 a8 3e 93 cb f7 3d
       0.24905095 0.09412778 0.32910612 0.120993756
000070 45 06 08 be 60 1d 7a 3e f3 c6 2a be aa ca 11 3d
       -0.13283642 0.24425268 -0.16677456 0.035593666
000080 39 e9 12 3c 72 b1 61 be b9 bd 3d 3d 5d 0f d2 3d
       0.008966737 -0.22040346 0.04632351 0.102568366
000090 4b fd 50 3d f8 81 d3 3e 2e fb 92 bd 3d 83 9c 3d
       0.05102281 0.41310096 -0.07176815 0.07642219
0000a0 64 72 bb 3d b5 b4 b0 3e 2d ad b1 3d 68 dd 56 3e
       0.09152678 0.3451287 0.08675609 0.20982897
0000b0 96 9c 81 be b2 68 3f be 82 e8 46 bc dd 32 a7 3e
       -0.25314778 -0.18692282 -0.012140395 0.32655993
0000c0 69 b6 d2 bc e4 86 36 be 15 6f 6c 3e 8f fc 92 3e
       -0.025721746 -0.17824894 0.2308925 0.28708312
0000d0 c1 56 a4 3e 18 23 8b 3e c2 f9 3f bd c0 78 43 3d
       0.32097438 0.27175212 -0.046869047 0.047722578
0000e0 e7 ba 5a 3e 38 56 a6 3d dc 5a 96 3d f7 f1 1c 3e
       0.2136036 0.08121914 0.07341549 0.15326677
0000f0 86 e8 05 be b1 99 aa 3e 2a c2 0b be 68 d0 8e 3e
       -0.13076982 0.33320382 -0.13648286 0.27893376
000100 74 4c 5c 3e 25 62 cb bd e1 ec a9 3e ff 37 ca 3e
       0.2151354 -0.09930829 0.33188537 0.39495847
000110 3a 4c 9d 3d c3 78 ba 3e 3f f6 b8 3e bc 98 22 be
       0.07680555 0.3642026 0.3612537 -0.15878576
000120 e7 c6 3c 3e 82 8a 3d 3e c6 aa a3 bd 55 2a 3d 3e
       0.1843525 0.18509868 -0.07991557 0.1847318
000130 38 79 63 3e 40 bb c0 3d a5 8a a1 3e d0 6e 39 bd
       0.2221421 0.09410715 0.3155109 -0.045271695
000140 1c 7b 78 3e a4 71 31 3e 50 e7 8d 3e fe c3 24 be
       0.24265712 0.17328507 0.2771554 -0.1609039
000150 52 6e bb 3e 2c 46 29 be df e4 3c 3d ec f5 b7 3e
       0.36607605 -0.16530675 0.046116706 0.3592981
000160 e7 6e 7b 3e 4e e0 44 bd ce 7c 9b 3d 91 51 02 be
       0.24554025 -0.048065476 0.07592164 -0.12726428
000170 95 d7 58 3e 05 d6 2f be 59 26 24 bd a4 52 b1 3b
       0.21175988 -0.17171486 -0.040075634 0.005411463
000180 fb e5 95 3e d0 63 a0 bb 4a 48 0a bd cd ad ae bd
       0.29277024 -0.004894711 -0.033760346 -0.085292436
000190 55 d1 b0 3e 86 1c 03 3e 1c 15 fb 3d 7a e7 c4 be
       0.34534708 0.1280385 0.12259886 -0.38457853
0001a0 10 47 1a bd ab fd 00 3e d7 38 2f 3e 11 ee 85 bc
       -0.037665427 0.12596767 0.17111526 -0.01634887
0001b0 43 ca 6b be ef ba ab 3e 94 2f a3 3e fc 1e d3 bd
       -0.23026375 0.33541057 0.31872237 -0.10308644
0001c0 4c f0 22 be b0 8a 80 3e f4 49 59 be 65 d6 13 3e
       -0.15911978 0.2510581 -0.21219617 0.14437254
0001d0 49 15 76 3e ec 10 e4 3d 4d 15 f4 bc 13 be a0 3e
       0.24031557 0.1113604 -0.029795313 0.31395015
0001e0 a9 de 94 3e 12 80 a3 be 17 06 34 3e 02 62 97 3d
       0.29076126 -0.31933647 0.17580448 0.073917404
0001f0 24 e0 80 3c 46 28 3d 3d cc ce d0 bd 33 aa 93 3e
       0.015731879 0.046180986 -0.101956934 0.2884079

net.2.weight f4 [4, 128]
000000 7b a5 ee bb de 05 94 bd 4f f4 6c 3b 5e df ba bd
       -0.0072829104 -0.072276816 0.0036156361 -0.09124635
000010 43 54 2b bd b5 40 ce bd 87 4f 66 bd 69 89 2f bd
       -0.041828405 -0.10070936 -0.056228187 -0.042855654
000020 88 e0 32 3c a9 d3 b9 bc 2b 8b 79 bd 93 91 54 bd
       0.01091779 -0.022683935 -0.060923737 -0.051896643
000030 d6 b2 d9 3a 00 8d b1 3c 4f a4 34 bd 89 a0 e2 3d
       0.0016609083 0.02167368 -0.04410201 0.11065776
000040 49 db 02 bd 93 2b 19 bd 1c 1c 09 be 2a 80 51 3c
       -0.031947408 -0.03739507 -0.13389629 0.012786904
000050 de ad b3 bd 0c b8 c0 bd 73 e0 30 3c 1b 88 d2 3c
       -0.08773397 -0.09410104 0.0107957 0.025699666
000060 84 e6 8e 3b 30 31 ae 3d 3f 3f 65 3d c0 b6 de bc
       0.0043609757 0.085054755 0.05596852 -0.027186751
000070 a0 07 76 bd 75 c6 06 bd c6 6a 01 be 4e 81 c6 bd
       -0.060065866 -0.032904107 -0.12638387 -0.09692632
000080 a0 eb 8f 3b 55 f0 b2 3b 2a 4e d6 3c 04 5b ae bd
       0.0043921024 0.0054607787 0.026160318 -0.085134536
000090 bf 93 31 bd 9d dc e2 bc 41 f2 16 bc 70 be ca bd
       -0.043353792 -0.027693087 -0.009213031 -0.09899604
0000a0 b9 aa 86 bc 10 2c b4 bd 9f 80 0b bd 5e 82 12 be
       -0.016438829 -0.08797467 -0.03405821 -0.14307544
0000b0 ba d5 09 3e 49 62 b9 bc 28 55 ae bb d1 b8 5b bd
       0.13460436 -0.022629874 -0.00532021 -0.05364305
0000c0 50 07 e8 bd 49 70 56 3d 8c 89 4b bd 6e 38 0c be
       -0.1132952 0.052353177 -0.04969172 -0.13693401
0000d0 f0 50 33 bd a0 14 ce 3c 29 7e a0 bb b0 df 3f bb
       -0.04377836 0.02515632 -0.004897852 -0.0029277615
0000e0 91 04 6c bc 12 66 b8 bd 7c 6f 34 bd ff df f7 3c
       -0.014405386 -0.09003843 -0.044051632 0.030258177
0000f0 b0 84 cb bd cf 50 0b bd 9f 0e c7 bc 07 f3 0f be
       -0.099374175 -0.034012612 -0.024298964 -0.14057551
000100 d3 34 03 be b7 fa c9 3c 42 4f ca bd b5 db aa bd
       -0.1281312 0.024655683 -0.098783985 -0.08342687
000110 4c 95 3e 3d 8d f2 29 bd 0d 30 b6 bd 35 92 b5 bd
       0.0465291 -0.04149108 -0.08895884 -0.088657774
000120 fd e6 b6 3d 8b f6 23 bd db 14 24 3d 88 8f e1 bd
       0.08930776 -0.040030044 0.04005895 -0.110137045
000130 5c f5 18 bc ab 6c f8 bd c9 68 b5 bd ee da d3 3b
       -0.009335842 -0.12130102 -0.08857877 0.0064653074
000140 01 67 50 bd 3c 5e 09 be a9 b8 fb bc 50 e4 91 bb
       -0.050879482 -0.13414854 -0.030727701 -0.004452266
000150 22 eb 4f bd 66 51 65 3d 77 6d 7e 3c 62 96 80 bd
       -0.05076135 0.05598583 0.015529028 -0.06278683
000160 75 9a 85 bd ef 47 28 bd 5c 79 0e be d3 99 15 be
       -0.06523601 -0.041084226 -0.13913482 -0.1460946
000170 3c 8f 0c 3c 2f 07 ee 3c 18 8e 8b bd ab d1 9b 3a
       0.008579072 0.02905616 -0.068142116 0.0011888047
000180 c6 96 86 bd ea 30 ac 3c 5e 54 3f 3c e6 91 56 bb
       -0.065717265 0.021019418 0.01167783 -0.003274077
000190 e3 69 18 bd 0d 7a 49 bd 47 df ea bd 21 e3 0f 3d
       -0.037210356 -0.049188662 -0.11468368 0.035128716
0001a0 eb b3 54 bd 3e 2d 13 be e8 4a bf bd e6 bb 08 bd
       -0.051929396 -0.14372727 -0.09340459 -0.03338232
0001b0 9f 01 9c 3d a5 7b 6f bd ed 71 be bd 72 f7 51 bd
       0.07617497 -0.058467526 -0.09299073 -0.051261373
0001c0 cf 8e 0b bd 56 f8 06 bd f1 ac 04 3d ec 21 1e 3d
       -0.03407174 -0.032951675 0.032391492 0.03860657
0001d0 35 36 30 bd 01 38 07 be ef 3d 55 bc b2 72 53 bd
       -0.043020446 -0.13204958 -0.013015254 -0.051623054
0001e0 e0 cf a1 bd 2a 59 e0 3b f6 b3 cc bd da cb 9e bd
       -0.07900977 0.0068465667 -0.09995262 -0.07753725
0001f0 0d ab 83 3c 55 57 1e be 0f 83 45 ba 0c f2 2d 3d
       0.016072774 -0.15463002 -0.0007534483 0.042467162
000200 42 84 cd 3d 83 81 ef 3d 33 fb f2 bc 0f da d2 3c
       0.10034992 0.11694624 -0.029660797 0.025738744
000210 07 54 42 3c 2d f3 a8 bd af 2c 6c 3d 91 cf c7 3d
       0.011860854 -0.08249507 0.0576598 0.09756387
000220 5d a7 1c 3c 8e 97 cc bc a9 13 54 bb 32 59 a8 3d
       0.009561387 -0.02497461 -0.0032360351 0.08220138
000230 ba b2 9e 3e 81 a3 39 3e 63 d3 b9 3d 6e 81 1c 3e
       0.30995733 0.18128778 0.09073522 0.15283749
000240 cc 48 45 bc db 62 e4 bc 8d ce 0a 3e 62 c3 08 3e
       -0.012041282 -0.02787917 0.13555355 0.13355783
000250 e4 0f 70 bd 0e fa 28 3e 0f cc 80 3c 2b db 2e 3e
       -0.058608904 0.16501638 0.015722303 0.17075793
000260 41 6e 29 3e 73 28 a7 3c 88 eb 03 3d 2c bd 6b be
       0.16545965 0.02040503 0.032207042 -0.23021382
000270 dd c1 c7 3d 38 4e 24 3d e2 c5 58 be 04 4a 4a be
       0.09753773 0.040113658 -0.21169236 -0.19754797
000280 46 d0 cb 3d 5b 35 0c bd a9 a1 42 3e a1 d0 b8 3d
       0.099518344 -0.03423057 0.19006981 0.09024168
000290 1b 63 07 be 1f bc 5e be 1f 15 25 be 36 2d d7 3d
       -0.132214 -0.2175145 -0.16121338 0.1050667
0002a0 b3 fb f5 bd 1c 2c 0a be a6 eb 1b bd 56 43 b8 3c
       -0.120108984 -0.13493389 -0.03806653 0.022493046
0002b0 28 c8 fd 3d 21 f4 0a be 49 79 7c be da 41 fc bd
       0.123916924 -0.1356969 -0.24655642 -0.12317248
0002c0 77 66 8d be 27 5c 70 bd 0f 7a 41 bd 39 ac 8b 3d
       -0.27617237 -0.058681633 -0.047235545 0.06819958
0002d0 00 d5 fd bd 56 50 61 bd ac 26 e4 bb 9a e5 82 be
       -0.12394142 -0.055008255 -0.006962618 -0.25565797
0002e0 46 a4 9c bd 9e 1c 1f 3e 23 3a 53 be b9 6c 94 bd
       -0.0764852 0.1553826 -0.20627646 -0.072473
0002f0 f3 08 31 be 46 01 70 3e cf 84 b5 3d 85 e4 49 3d
       -0.1728857 0.23437986 0.08863222 0.0492902
000300 8c 01 81 bc f6 d7 93 3d 36 3a 8d 3d b3 21 90 bd
       -0.015747808 0.07218926 0.068958685 -0.070376776
000310 a6 03 d2 3d 26 53 fb bd d1 4d 46 be db 6d 22 3d
       0.10254602 -0.12271719 -0.19365622 0.039655548
000320 cd ae 1b 3c 52 e2 02 3d 04 98 d1 3d cb f9 28 3e
       0.009502125 0.031954117 0.10234073 0.16501538
000330 5f f8 02 3e 60 47 08 be 18 4d d5 bd 07 b6 79 3d
       0.12790059 -0.13308477 -0.10415095 0.06096461
000340 35 8e bc bd 1e ea 6e bd 05 f5 22 3e 93 b6 bf 3d
       -0.09206811 -0.05832874 0.1591378 0.09360995
000350 5d e3 38 3d c2 8d 33 3d 07 59 82 3e 37 42 ab bd
       0.045138706 0.043836363 0.25458547 -0.08362239
000360 53 1b f7 bd 9e 73 70 3e f2 73 87 be 2f c3 c0 bc
       -0.120657586 0.23481604 -0.26455647 -0.02353057
000370 bf 7b 2a bd 5b 8f 02 bd 8e 61 e5 bd 85 7e b5 3b
       -0.04162192 -0.031874996 -0.11200248 0.005538764
000380 24 81 db 3d a4 ec e1 bd 33 94 e5 bc 29 b2 27 bd
       0.10717991 -0.11031464 -0.028024768 -0.04094139
000390 e7 fe 4f bd c7 a4 1c 3e 14 5b c6 3d f1 0e 22 3c
       -0.050780203 0.15297233 0.096853405 0.009891258
0003a0 82 ab 95 3d e2 a8 77 3d cc 43 98 3d 11 81 b9 bd
       0.07308103 0.060463794 0.07434806 -0.090578206
0003b0 11 74 91 bd 0c 25 f3 bd 03 f5 0e 3e 62 ad 16 3d
       -0.07102216 -0.118723005 0.13960652 0.036786444
0003c0 40 da 87 bd e8 c1 ac b9 43 2c 1d 3a d2 cb 36 bd
       -0.06633425 -0.00032950868 0.000599567 -0.044627972
0003d0 f1 d9 80 bd b2 ab 5d 3e a8 c4 a9 bd ae b3 41 be
       -0.06291569 0.21647528 -0.08289462 -0.18916199
0003e0 25 21 80 be e5 19 bb bc 32 40 0a bd 1b 21 2c 3e
       -0.25025287 -0.022839496 -0.033752628 0.16809504
0003f0 fb 9e 8b 3d bc 29 52 3d 7d 47 b8 bc 51 ba 8b 3d
       0.068174325 0.051309332 -0.022495026 0.068226464

net.2.bias f4 [4]
000000 a9 5a 63 bd 7f 5a 25 bd ea 74 a6 3c 3b 83 68 bd
       -0.055506382 -0.040369507 0.02031942 -0.056765776
